classifier.pt (torch_old, 577073 bytes, 6 tensors)

0.weight f4 [200, 512]
0.05654861 -0.034950763 0.0061211567 -0.030710759 -0.04593075 0.025694434 -0.012964613 0.02129648
-0.016957382 -0.018943919 -0.0045189303 -0.024188226 0.011059387 -0.018891692 -0.025546754 -0.05344473
0.010223306 -0.017790236 -0.034124594 0.0009840286 0.016574172 -0.059562232 0.007819344 -0.001298052
0.019428719 0.05376672 0.0097397305 0.031684037 0.034922365 -0.0015634012 -0.030151242 0.012213509
0.029111352 -0.004304829 0.0295176 0.023525259 0.023708973 -0.05054153 0.02829334 -0.05677018
-0.04898397 -0.0074706036 -0.051870406 -0.012765839 -0.049956493 -0.037735596 -0.00037004738 -0.00058540143
-0.026994992 -0.0037212754 0.006609542 -0.015496549 0.015115585 0.028332368 0.016063174 0.047588237
0.02785581 -0.005820312 0.049874257 0.045412213 -0.008903152 -0.056094583 -0.009057388 0.025197987
0.0143370535 -0.042434648 0.0066870083 -0.048113108 -0.024252143 -0.033703588 -0.018446302 -0.04731549
0.0010438755 -0.01501554 0.041883744 0.0034657044 0.023229683 0.010056957 -0.022583595 -0.008258619
0.0054460224 -0.01865413 0.002109431 -0.04392393 -0.024776673 -0.008458822 -0.03620466 0.021072863
-0.02199768 0.037310943 -0.026273157 -0.017006945 0.03109017 0.013627764 0.030904215 0.04966764
-0.029743258 -0.0055739824 -0.029086627 0.03667845 0.025086205 -0.027691467 -0.05269613 0.050204262
-0.0077989665 0.026434852 0.028944364 -0.006094266 -0.0014382356 -0.020385921 0.01855092 -0.047547776
-0.01817989 0.075403534 -0.02229164 -0.029584859 -0.025908003 0.002229234 -0.0026151794 -0.013093577
0.031835474 0.03742539 -0.029923206 0.014901946 0.019601267 0.03318838 -0.0010032923 0.028816616
-0.022084555 0.00661847 -0.06424573 -0.03185337 -0.036099102 -0.039740995 0.06545989 -0.014565728
0.02784213 0.0360881 0.014312703 -0.011814667 -0.016546356 0.017676573 0.012601951 0.047879435
0.023294501 0.021358248 -0.026281899 0.009202162 -0.047084935 -0.044724014 0.018203374 -0.0018159631
-0.0447385 -0.010526421 -0.053073604 -0.02187473 0.030970668 0.054472215 -0.0017883135 0.03165518
0.028756624 0.05627341 -0.0056348965 0.036036823 0.02696186 0.032456364 0.030293133 0.010386103
-0.0023402977 -0.022447696 -0.026328899 -0.036003795 0.026576173 0.043745503 0.02379927 0.03261422
-0.011807962 -0.0056374837 0.047581207 0.0466196 -0.03775746 0.02806965 0.024794467 -0.03148385
0.0052315257 -0.004416217 -0.0007103042 0.034541976 0.004744437 -0.06645852 -0.015184407 -0.040117368
-0.03814821 0.014285275 -0.040389843 -0.020727992 -0.05381067 -0.036712494 0.017378438 -0.019064896
0.010200996 -0.004931223 -0.04040119 -0.051381722 -0.043792736 0.017309718 -0.037434973 -0.008041328
-0.062006798 -0.025061417 0.042622734 0.021062572 0.02015644 0.023867749 0.074565224 -0.010163318
-0.04085523 0.032784868 -0.0536209 0.044378147 0.018669542 -0.017448276 0.026466995 -0.04058779
0.05681452 -0.03722052 0.013786087 0.03544023 0.02400966 0.025887933 0.014602844 0.038650293
-0.043243643 0.03017384 0.056906767 -0.0038896787 0.016235307 0.0052828053 -0.0038059424 -0.033122968
0.0337654 -0.050225027 0.014256 0.0016439403 -0.023721844 -0.040573508 -0.023279311 0.012912037
0.0030458155 -0.025759261 0.026003644 0.03580928 -0.009112675 0.03515514 0.0027735312 -0.0031939803
00000000: 849f 673d 8828 0fbd fc93 c83b 2195 fbbc
00000010: e221 3cbd 227d d23c 8769 54bc f575 ae3c
00000020: 35ea 8abc 4730 9bbc 8913 94bb 6326 c6bc
00000030: 6e32 353c c0c2 9abc 6d47 d1bc dce8 5abd
00000040: a77f 273c d4bc 91bc 3bc6 0bbd 85fa 803a
00000050: 8fc6 873c 87f7 73bd b51c 003c 6623 aaba
00000060: fa28 9f3c 7e3a 5c3d 6493 1f3c 1fc7 013d
00000070: c10a 0f3d 0aeb ccba bdff f6bc 2b1b 483c
00000080: ee7a ee3c 860f 8dbb e5ce f13c 0bb8 c03c
00000090: 5239 c23c a304 4fbd 6fc7 e73c d987 68bd
000000a0: 6aa3 48bd f7cb f4bb 1076 54bd cf27 51bc
000000b0: 2e9f 4cbd a490 1abd eb02 c2b9 a075 19ba
000000c0: 9a24 ddbc a4e0 73bb db94 d83b 3de5 7dbc
000000d0: 5ca7 773c 4819 e83c eb96 833c e2eb 423d
000000e0: de31 e43c 51b8 bebb f348 4c3d 2802 3a3d
000000f0: 87de 11bc 6fc3 65bd 7065 14bc 026c ce3c
00000100: f6e5 6a3c f4cf 2dbd b11e db3b 4012 45bd
00000110: 6eac c6bc c60c 0abd b31c 97bc e3cd 41bd
00000120: a6d2 883a bd03 76bc 4a8e 2b3d df20 633b
00000130: 2d4c be3c efc5 243c 3b01 b9bc 294f 07bc
00000140: 8c74 b23b 8cd0 98bc 613e 0a3b 94e9 33bd
00000150: 73f8 cabc df96 0abc 564b 14bd ffa0 ac3c
00000160: 7b34 b4bc 5cd3 183d ce3a d7bc 2652 8bbc
00000170: d0b0 fe3c fc46 5f3c d62a fd3c 4c70 4b3d
00000180: 22a8 f3bc f4a5 b6bb 1447 eebc 243c 163d
00000190: 9681 cd3c 37d9 e2bc e6d7 57bd fca2 4d3d
000001a0: 798e ffbb e78d d83c bb1c ed3c 69b2 c7bb
000001b0: 2e83 bcba 6000 a7bc 19f8 973c 75c1 42bd
000001c0: feed 94bc 2b6d 9a3d f59c b6bc f25b f2bc
000001d0: 053d d4bc 5718 123b 6e63 2bbb 7186 56bc
000001e0: ea65 023d 5e4b 193d 8321 f5bc 4b27 743c
000001f0: d692 a03c 8af0 073d e780 83ba d310 ec3c
00000200: abea b4bc c0df d83b 4493 83bd ae78 02bd
00000210: a7dc 13bd 74c7 22bd d60f 863d 17a5 6ebc
00000220: 2e15 e43c 1ed1 133d d47f 6a3c 4e92 41bc
00000230: 398c 87bc 76ce 903c 6a78 4e3c 3a1d 443d
00000240: 1cd4 be3c 7ef7 ae3c 234d d7bc aac4 163c
00000250: 22dc 40bd 8730 37bd 3e1f 953c 9c05 eeba
00000260: b83f 37bd 0277 2cbc b563 59bd a232 b3bc
00000270: 33b6 fd3c 421e 5f3d d865 eaba dda8 013d
00000280: 0393 eb3c f27e 663d f0a4 b8bb 599b 133d
00000290: 1edf dc3c f7f0 043d 4e29 f83c 792a 2a3c
000002a0: ae5f 19bb 3be4 b7bc b4af d7bc b778 13bd
000002b0: 46b6 d93c 7c2e 333d b0f6 c23c 7d96 053d
000002c0: 2f76 41bc a4ba b8bb 83e4 423d 32f4 3e3d
000002d0: 91a7 1abd 53f2 e53c c41d cb3c 36f5 00bd
000002e0: 386d ab3b eab5 90bb b533 3aba e37b 0d3d
000002f0: 3977 9b3b 681b 88bd 05c8 78bc 1c52 24bd
00000300: 4c41 1cbd c90c 6a3c d26f 25bd c0cd a9bc
00000310: 9468 5cbd d75f 16bd 3a5d 8e3c fc2d 9cbc
00000320: 1422 273c 1996 a1bb b87b 25bd a475 52bd
00000330: 0360 33bd 1ccd 8d3c 6a55 19bd c6bf 03bc
00000340: d7fa 7dbd 9a4d cdbc 2d95 2e3d 6a8b ac3c
00000350: 1e1f a53c 4c86 c33c a7b5 983d 0c84 26bc
00000360: d057 27bd 6d49 063d 97a1 5bbd dcc5 353d
00000370: def0 983c b0ef 8ebc 50d1 d83c 623f 26bd
00000380: 58b6 683d 8b74 18bd 0adf 613c c629 113d
00000390: e8af c43c ee12 d43c c440 6f3c c54f 1e3d
000003a0: 3f20 31bd 212f f73c 1217 693d fbe9 7ebb
000003b0: e8ff 843c 621b ad3b 1e6d 79bb f3ab 07bd
000003c0: 974d 0a3d c2b8 4dbd ff91 693c 7c79 d73a
000003d0: 5054 c2bc 6830 26bd 41b4 bebc 028d 533c
000003e0: 4e9c 473b 1605 d3bc 9805 d53c c0ac 123d
000003f0: 544d 15bc d6fe 0f3d 22c4 353b 1952 51bb

0.bias f4 [200]
0.0147866 -0.013354403 0.042392533 0.022653017 -0.024476634 0.021076003 0.017272176 0.019792372
0.016676325 -0.021215476 0.011682309 0.0046083475 0.036018696 0.04185047 -0.027233256 0.006394595
0.057295118 0.051160272 0.02647717 0.010184723 0.03243435 0.048429433 0.01770217 -0.01739971
0.0051762382 0.010025339 -0.024617806 -0.014800288 0.051346917 -0.031837355 0.012410601 0.07099642
-0.034009192 -0.0036996834 0.037404437 0.029708337 0.014552334 0.042914618 -0.0036755484 0.018571382
-0.00093504443 -0.01867748 0.0017268284 -0.022072487 -0.03057825 -0.01989903 0.04255271 -0.020264516
0.047862798 -0.016833404 -0.024641076 0.035564512 0.008528583 0.0050894534 -0.009230437 0.04058897
-0.020105638 0.052201685 0.015456728 0.037946913 -0.036627386 0.029351855 -0.041983165 0.037791625
-0.025801226 -0.023359591 0.03285495 0.031188853 0.044377696 0.05411106 -0.034852523 -0.0044791005
0.025033712 -0.032533877 0.0022704536 -0.023282157 0.00094421353 -0.016555564 -0.01531907 0.03709225
0.0836895 0.09164906 0.036822457 0.022175588 0.051230118 0.07112108 0.01362632 0.014715605
0.009174602 0.06966554 -0.02109518 -0.021914305 0.002664027 0.059830535 -0.001073484 -0.03659203
0.018140549 0.04236886 0.0029190013 0.046856318 0.016727159 0.0650569 0.0036139921 0.0731395
0.029174102 0.052289713 -0.01232491 0.012488094 0.044542164 -0.0031449578 0.042915013 0.04648303
-0.0056099524 0.0097017195 -0.0036975085 -0.03219384 0.039562296 0.007537488 -0.04462947 -0.0032277184
0.047031946 -0.02197031 -0.026604569 -0.019805614 0.025855877 -0.007701376 0.033394888 0.050286584
0.009705266 0.04868132 0.050015397 -0.025945675 0.050185297 0.033202898 -0.025214124 -0.0066877436
0.06839182 0.03014291 -0.016012948 -0.006790163 -0.02141893 0.05629921 0.0035231435 0.009399688
0.051338054 -0.004868989 0.046672855 -0.017272428 -0.032666273 0.006325989 0.029688612 0.03824218
0.007913709 -0.006495832 0.0137364045 -0.022380406 0.028861139 0.0053755497 0.049097165 0.029177213
0.037928876 -0.0052235397 -0.026368583 0.010455912 0.011190998 -0.024113333 -0.003727996 0.032730807
-0.02601911 0.048779093 0.058671 0.010010407 0.076636955 0.01709224 0.06451049 -0.015744228
-0.031956118 0.03625539 -0.011705455 -0.015473348 -0.0071723247 0.05945456 0.0013063678 0.042420935
-0.011438294 0.051255215 0.0014890356 0.010524876 -0.0056392667 0.0054605436 -0.0045093824 0.038145337
-0.0051753554 0.03710933 0.02639669 0.019825116 0.031640448 -0.007899192 -0.021262849 0.012151581
00000000: 7f43 723c 6dcc 5abc cba3 2d3d d292 b93c
00000010: 3983 c8bc 95a7 ac3c 617e 8d3c 9d23 a23c
00000020: ca9c 883c 14cc adbc 2867 3f3c 9f01 973b
00000030: 5788 133d 666b 2b3d 4718 dfbc c089 d13b
00000040: 49ae 6a3d 6f8d 513d a6e6 d83c d3dd 263c
00000050: e2d9 043d f15d 463d 2404 913c d689 8ebc
00000060: 6f9d a93b 5241 243c 48ab c9bc e87c 72bc
00000070: 2551 523d e367 02bd d555 4b3c 9266 913d
00000080: 394d 0bbd 6376 72bb 6535 193d e65e f33c
00000090: ea6c 6e3c 3dc7 2f3d 78e1 70bb 0323 983c
000000a0: c51d 75ba 8401 99bc bf56 e23a 5cd1 b4bc
000000b0: 3d7f fabc 4a03 a3bc c04b 2e3d c501 a6bc
000000c0: c80b 443d 35e6 89bc 15dc c9bc 18ac 113d
000000d0: 78bb 0b3c 6ec5 a63b 423b 17bc 9f40 263d
000000e0: 94b4 a4bc 6fd1 553d 373e 7d3c 396e 1b3d
000000f0: 9906 16bd 4d73 f03c 8af6 2bbd 64cb 1a3d
00000100: 185d d3bc 9d5c bfbc e992 063d c47f ff3c
00000110: 63c5 353d 8fa3 5d3d 85c1 0ebd 6bc5 92bb
00000120: 8013 cd3c 3e42 05bd e4cb 143b 39ba bebc
00000130: 1985 773a 899f 87bc d6fc 7abc 0bee 173d
00000140: 6765 ab3d 81b2 bb3d 25d3 163d 94a9 b53c
00000150: acd6 513d eea7 913d ee40 5f3c b919 713c
00000160: 1251 163c ceac 8e3d cdcf acbc a185 b3bc
00000170: f596 2e3b dd10 753d 25b4 8cba 86e1 15bd
00000180: 7d9b 943c f88a 2d3d b74c 3f3b 69ec 3f3d
00000190: 6507 893c 8d3c 853d bad8 6c3b 2aca 953d
000001a0: 87fe ee3c bd2d 563d 6bee 49bc dd9a 4c3c
000001b0: d871 363d a31b 4ebb a7c7 2f3d fd64 3e3d
000001c0: b1d3 b7bb f6f3 1e3c e651 72bb b0dd 03bd
000001d0: 130c 223d 08fd f63b 64cd 36bd 2188 53bb
000001e0: 92a4 403d 14fb b3bc d3f1 d9bc 623f a2bc
000001f0: b4cf d33c d35b fcbb 14c9 083d 4ef9 4d3d
00000200: d602 1f3c 1066 473d f2dc 4c3d 068c d4bc
00000210: 198f 4d3d c3ff 073d da8d cebc dc24 dbbb
00000220: 0311 8c3d 44ee f63c 962d 83bc 0480 debb
00000230: c076 afbc 009a 663d 8ae4 663b 2601 1a3c
00000240: da47 523d 0a8c 9fbb 092c 3f3d e87e 8dbc
00000250: 12cd 05bd 3e4a cf3b 8835 f33c d5a3 1c3d
00000260: 80a8 013c fdda d4bb a80e 613c 1d57 b7bc
00000270: 326e ec3c 6125 b03b 1c1a 493d 0d05 ef3c
00000280: 4f5b 1b3d 3a2a abbb ed02 d8bc 464f 2b3c
00000290: 735a 373c 5389 c5bc 6551 74bb bd10 063d
000002a0: 0726 d5bc 96cc 473d 0151 703d b102 243c
000002b0: d6f3 9c3d 0605 8c3c 131e 843d 0afa 80bc
000002c0: 6be4 02bd 8880 143d 3dc8 3fbc ed83 7dbc
000002d0: d205 ebbb a086 733d 6e3a ab3a 93c1 2d3d
000002e0: af67 3bbc fdf0 513d be2b c33a 8870 2c3c
000002f0: 99c9 b8bb 5cee b23b 71c3 93bb 493e 1c3d
00000300: 0796 a9bb f4ff 173d df3d d83c 4868 a23c
00000310: 6a99 013d 9d6b 01bc 6d2f aebc 6d17 473c

2.weight f4 [200, 200]
0.03108345 0.053853728 0.009096991 -0.04377315 0.007789152 -0.058919344 0.043736365 -0.021598747
0.05613495 -0.04317633 -0.016220273 -0.0129407365 0.019817023 -0.0303941 -0.07499284 -0.044367336
-0.014229882 -0.042108387 -0.03303193 -0.004810358 0.025625922 0.02779583 -0.063855626 0.00058650324
-0.035591077 0.053681154 0.032399446 -0.025808683 -0.0389227 0.06592425 -0.05843723 0.0375274
0.014298263 -0.04107523 0.03279497 0.03496837 -0.02989576 0.01973206 -0.049759414 -0.029808044
0.03337044 0.010431409 0.027745867 -0.044342052 0.049065698 0.020095903 -0.008839446 0.06881074
-0.0427553 -0.070230864 -0.032749448 0.051203452 -0.017037379 0.06445607 -0.029361645 -0.010520981
0.052846927 -0.025663665 0.034789372 0.033786606 -0.03314272 0.02378381 -0.035015456 -0.063243136
0.04974407 0.03498082 -0.05329336 -0.019224439 -0.0018807524 0.031646907 -0.05785438 -0.040385503
0.032594226 -0.03238086 0.07076374 0.06541246 0.0051715383 -0.03463474 -0.010904523 -0.050316423
-0.04520477 -0.00832217 0.058903396 0.06980549 0.057706513 0.06386991 0.0051590186 0.026404344
-0.040788993 0.040056504 0.06199213 0.010842928 -0.039826926 0.05677993 0.065189905 -0.04455128
-0.06389088 0.052983653 0.062250525 -0.0325556 0.021790987 0.010523999 0.048454918 0.06969043
-0.047635086 0.06447527 0.013716282 -0.032495186 -0.036870334 0.035377838 0.0671562 -0.014312794
0.06471165 -0.06095664 -0.035459436 0.02976369 -0.023932414 -0.0012784707 0.04625618 0.00469909
-0.06861298 0.034851413 -0.064006485 -0.01531721 0.013021852 0.0012114112 -0.00044932018 -0.051937196
-0.050449133 -0.049297776 0.010310252 0.019590944 0.06701625 -0.016412068 -0.031271674 -0.0014348755
0.03312066 0.03925271 0.0011889235 -0.046784364 -0.044902526 -0.015120166 0.05606771 0.017742215
-0.045411218 -0.037726093 0.039307937 -0.04194961 -0.006805988 0.012803583 0.007480157 0.060567863
0.016672766 0.055908844 0.018542558 0.048199955 0.06686058 -0.05684345 -0.06178017 0.0028681224
-0.023976292 0.02787562 0.023051195 0.05993057 0.040464878 0.00589562 -0.06850771 0.06645084
-0.051720656 0.01410677 0.0055326815 0.017718153 -0.041861985 0.06826458 0.002395979 0.055595875
-0.023523785 -0.01794001 -0.06822648 -0.021649206 0.0042732023 -0.06650224 -0.0033923024 -0.03739219
-0.0015723248 0.02500918 -0.02405559 0.04209479 -0.024167823 0.051347926 -0.023909613 0.06264243
-0.05411174 0.028585883 -0.071997456 -0.038441684 0.034984488 -0.01824139 -0.017459057 -0.04753545
0.023409517 -0.044871792 -0.031925026 -0.036887284 0.0032817074 -0.068463415 0.024479112 0.057973552
0.041038923 -0.03942152 0.002675329 -0.011301298 0.055008102 -0.024791695 0.0381922 -0.0653981
-0.046968453 0.02630956 0.07312023 -0.056387573 -0.010308656 -0.049110275 0.006089019 0.052041348
-0.051021613 -0.006552863 -0.015683228 0.07599018 -0.047132794 -0.02852811 -0.058582295 0.067183875
0.009007874 0.03370173 0.06917376 -0.0687883 0.05855598 0.0104499115 -0.047091555 -0.033830103
-0.023735015 0.035358902 0.04094832 -0.050607324 -0.027994728 0.03837427 -0.034449838 0.016966252
-0.029703353 0.050462753 0.064593695 -0.004803129 -0.04376793 -0.0039397473 0.013680746 -0.055843707
00000000: b8a2 fe3c ba95 5c3d 8c0b 153c 794b 33bd
00000010: 253c ff3b 6955 71bd e724 333d dbef b0bc
00000020: c3ed 653d aad9 30bd 61e0 84bc 6205 54bc
00000030: 4f57 a23c 0cfd f8bc d995 99bd 86ba 35bd
00000040: 7324 69bc d879 2cbd 7d4c 07bd 35a0 9dbb
00000050: 74ed d13c 15b4 e33c bdc6 82bd 91bf 193a
00000060: f3c7 11bd c5e0 5b3d 48b5 043d bb6c d3bc
00000070: 696d 1fbd 4b03 873d e05b 6fbd 55b6 193d
00000080: 4343 6a3c 803e 28bd 0554 063d fe3a 0f3d
00000090: f4e7 f4bc 21a5 a13c 87d0 4bbd 0030 f4bc
000000a0: 71af 083d 80e8 2a3c 4d4b e33c 03a0 35bd
000000b0: 1df9 483d 2aa0 a43c 53d3 10bc a5ec 8c3d
000000c0: 2e20 2fbd 33d5 8fbd 4924 06bd b6ba 513d
000000d0: f991 8bbc 8b01 843d d587 f0bc 3160 2cbc
000000e0: 0576 583d 9b3c d2bc 4d7f 0e3d d363 0a3d
000000f0: a9c0 07bd 44d6 c23c 5e6c 0fbd 9e85 81bd
00000100: 70c0 4b3d 0c48 0f3d 234a 5abd 927c 9dbc
00000110: 9483 f6ba 30a0 013d b7f8 6cbd 456b 25bd
00000120: 8681 053d cba1 04bd 94ec 903d f8f6 853d
00000130: 0276 a93b 28dd 0dbd e2a8 32bc 9818 4ebd
00000140: a328 39bd b659 08bc b044 713d 2ef6 8e3d
00000150: aa5d 6c3d 3ace 823d fc0c a93b ec4d d83c
00000160: 5c12 27bd 4a12 243d 76eb 7d3d 89a6 313c
00000170: 8f21 23bd 1292 683d 4982 853d 677b 36bd
00000180: 39d9 82bd 6305 593d 68fa 7e3d 0559 05bd
00000190: 0383 b23c da6c 2c3c aa78 463d dbb9 8e3d
000001a0: 021d 43bd 9c0b 843d 42ba 603c ac19 05bd
000001b0: 5905 17bd 5ae8 103d 3189 893d 3680 6abc
000001c0: 8b87 843d abad 79bd ea3d 11bd fbd2 f33c
000001d0: e90d c4bc 5c92 a7ba 1f77 3d3d d3fa 993b
000001e0: f684 8cbd 5bc0 0e3d d515 83bd 09f5 7abc
000001f0: 9b59 553c 37c8 9e3a bc92 ebb9 19bc 54bd
00000200: c0a3 4ebd 77ec 49bd 55ec 283c 307d a03c
00000210: d13f 893d 9a72 86bc ba16 00bd 6f12 bcba
00000220: 87a9 073d 73c7 203d a7d5 9b3a f6a0 3fbd
00000230: b6eb 37bd 93ba 77bc 41a7 653d 1f58 913c
00000240: 1d01 3abd ad86 1abd 5c01 213d 5bd3 2bbd
00000250: c404 dfbb 1fc6 513c 1b1c f53b 0216 783d
00000260: 5395 883c ac00 653d 90e6 973c 516d 453d
00000270: 33ee 883d add4 68bd 340d 7dbd 1cf7 3b3b
00000280: ee69 c4bc 6a5b e43c dcd5 bc3c c279 753d
00000290: 80be 253d 0c30 c13b c54d 8cbd 6117 883d
000002a0: 0ad9 53bd 1520 673c 7f4b b53b a925 913c
000002b0: 7977 2bbd 4dce 8b3d db05 1d3b 80b8 633d
000002c0: f4b4 c0bc eef6 92bc 53ba 8bbd ad59 b1bc
000002d0: 3806 8c3b 5432 88bd 6451 5ebb 8e28 19bd
000002e0: 7716 ceba 0de0 cc3c 3b10 c5bc 966b 2c3d
000002f0: 99fb c5bc 3452 523d 18de c3bc ad4a 803d
00000300: 46a4 5dbd f12c ea3c 6773 93bd 0775 1dbd
00000310: e54b 0f3d f86e 95bc 4c06 8fbc 88b4 42bd
00000320: 51c5 bf3c 7ccb 37bd d1c3 02bd 1f17 17bd
00000330: ea11 573b 8c36 8cbd 6b88 c83c ad75 6d3d
00000340: 6e18 283d 7678 21bd 9354 2f3b 1429 39bc
00000350: 2d50 613d f417 cbbc 6d6f 1c3d 70ef 85bd
00000360: fe61 40bd 2587 d73c 0fc0 953d a8f6 66bd
00000370: a3e5 28bc db27 49bd 6586 c73b 4f29 553d
00000380: 0afc 50bd 66b9 d6bb 1d7a 80bc bda0 9b3d
00000390: 510e 41bd c8b3 e9bc fdf3 6fbd b397 893d
000003a0: c395 133c d30a 0a3d f9aa 8d3d e1e0 8cbd
000003b0: 65d8 6f3d 1b36 2b3c 13e3 40bd 6f91 0abd
000003c0: ef6f c2bc 7fd4 103d 6db9 273d a049 4fbd
000003d0: 3355 e5bc 572e 1d3d 461b 0dbd cffc 8a3c
000003e0: 7254 f3bc 08b2 4e3d b349 843d 9163 9dbb
000003f0: 0046 33bd ff18 81bb 3525 603c 5fbc 64bd

2.bias f4 [200]
0.023103012 0.01945253 -0.01917438 0.060587753 0.03152701 0.07404956 0.06290047 -0.010359212
0.061472163 0.062114142 0.007045412 -0.05340082 -0.058767986 -0.01235386 0.01028659 -0.0061073736
0.062383283 -0.040436227 -0.037950534 -0.04812976 -0.0008885843 -0.046952017 -0.06680195 -0.037184812
-0.02040785 0.051834404 0.005177565 -0.023689618 0.033631627 0.0011457674 0.011563527 0.008753532
-0.042507302 -0.02383768 0.054607663 -0.028696168 -0.016343271 0.005297431 0.062439315 0.02527746
0.022517644 0.060841117 0.06915146 -0.028712701 0.03713825 0.016092494 0.02596154 0.034914073
0.059944715 0.045154516 -0.022527117 0.04829507 -0.02199959 -0.027396053 0.0041768923 -0.03790646
-0.051606372 -0.038986582 -0.01939672 -0.027327856 0.014422724 0.06364895 -0.030663304 0.08270315
0.035346657 0.01652713 0.060627043 -0.016765611 0.01189655 -0.037112296 0.01070843 -0.03456985
0.016389217 0.02566328 0.036096398 0.07711923 -0.041555807 -0.035104066 0.0026468292 0.09426077
-0.03412748 0.04115573 0.09412605 0.005901937 -0.0010478694 -0.03963665 0.036472112 -0.07018946
0.052796945 0.049306422 0.09091538 -0.014825241 -0.01575672 0.06849425 0.0014570851 0.051577125
0.0024073902 -0.01741897 -0.032023598 0.037061613 0.07623422 -0.0043199346 -0.010223817 0.00010651047
-0.016554292 0.031172447 -0.040936716 0.03147244 0.06006375 -0.01981277 0.07528551 -0.012982642
0.06370395 -0.022327548 -0.032742232 0.07798816 -0.04780657 -0.04689301 -0.033166237 0.056845073
0.0853318 -0.06993552 0.014821725 0.046932746 0.028854199 -0.06724329 0.013955089 0.0067087994
0.076003544 0.02826684 0.030752312 0.10257462 -0.007924268 0.08228027 -0.025481952 0.035588056
0.06917836 0.025822964 0.054621097 0.060424607 0.049190246 0.057025444 0.087466694 0.08943295
-0.06332471 0.036474217 -0.029602265 -0.041170783 0.043708857 -0.009567768 0.029510152 0.047516398
0.076302186 -0.06140347 0.017263489 0.028843895 -0.0047116606 -0.02308554 0.033486873 0.05320729
-0.01239966 0.01247936 -0.033622064 -0.035793893 0.064716674 0.0021828979 0.056312606 -0.0384009
-0.03709685 0.011317477 0.10342193 0.030784242 0.0038792235 0.054183654 0.06834545 -0.0009547102
0.026194058 0.013732867 0.024203261 -0.0039262064 0.0035163593 -0.029304419 0.00023489808 -0.030494576
-0.022273699 0.037965454 -0.06553617 -0.0334891 0.08346186 0.03663219 0.0076377233 0.038578477
0.0036288602 0.07379416 -0.030411862 0.058139592 0.023473334 0.02578442 -0.06450297 0.017748434
00000000: 8742 bd3c ea5a 9f3c 9713 9dbc dd2a 783d
00000010: 7722 013d 4ca7 973d f6d1 803d afb9 29bc
00000020: 3cca 7b3d 666b 7e3d 33dd e63b d1ba 5abd
00000030: b3b6 70bd d867 4abc 1689 283c 5d20 c8bb
00000040: 9d85 7f3d 75a0 25bd 0572 1bbd b623 45bd
00000050: e2ef 68ba c250 40bd 76cf 88bd 1a4f 18bd
00000060: 5d2e a7bc 5050 543d 90a8 a93b bb10 c2bc
00000070: 51c1 093d 932d 963a f374 3d3c f96a 0f3c
00000080: 231c 2ebd 3d47 c3bc 49ac 5f3d 3a14 ebbc
00000090: 53e2 85bc 1296 ad3b 5ec0 7f3d ad12 cf3c
000000a0: ec76 b83c 8934 793d 489f 8d3d e636 ebbc
000000b0: 471e 183d 68d4 833c 4cad d43c 0f02 0f3d
000000c0: 9788 753d f1f3 383d ca8a b8bc 0dd1 453d
000000d0: 7c38 b4bc b06d e0bc 50de 883b ce43 1bbd
000000e0: 3461 53bd 65b0 1fbd dfe5 9ebc abde dfbc
000000f0: 4a4d 6c3c 615a 823d 9c31 fbbc 4560 a93d
00000100: a8c7 103d e763 873c 1054 783d 0958 89bc
00000110: bfe9 423c 1003 18bd 6972 2f3c 1d99 0dbd
00000120: ae42 863c cd3b d23c d1d9 133d b0f0 9d3d
00000130: 6c36 2abd 48c9 0fbd 6d76 2d3b ca0b c13d
00000140: 42c9 0bbd e992 283d 29c5 c03d 0965 c13b
00000150: aa58 89ba 0a5a 22bd c863 153d 7ebf 8fbd
00000160: 9c41 583d 88f5 493d d831 ba3d 91e5 72bc
00000170: 3d14 81bc b746 8c3d aafb be3a 8942 533d
00000180: 4ec5 1d3b 3ab2 8ebc 2d2b 03bd ebcd 173d
00000190: b020 9c3d 3d8e 8dbb cc81 27bc 605e df38
000001a0: de9c 87bc 5c5d ff3c 42ad 27bd 3fe9 003d
000001b0: 6805 763d 644e a2bc 4a2f 9a3d 26b5 54bc
000001c0: 3777 823d 43e8 b6bc b81c 06bd 42b8 9f3d
000001d0: d2d0 43bd e312 40bd 52d9 07bd 61d6 683d
000001e0: 70c2 ae3d 5b3a 8fbd d2d6 723c 8d3c 403d
000001f0: a45f ec3c dab6 89bd e3a3 643c 7dd5 db3b
00000200: bfa7 9b3d dc8f e73c 46ec fb3c a412 d23d
00000210: cad4 01bc 8f82 a83d 87bf d0bc c8c4 113d
00000220: 62ad 8d3d ae8a d33c 5fba 5f3d cb7f 773d
00000230: b67b 493d 8393 693d bd21 b33d 9f28 b73d
00000240: 63b0 81bd fd65 153d 7380 f2bc b2a2 28bd
00000250: 0f08 333d 21c2 1cbc 46bf f13c 8ea0 423d
00000260: 5244 9c3d 3482 7bbd 296c 8d3c 084a ec3c
00000270: 4664 9abb e31d bdbc 8829 093d e3ef 593d
00000280: f227 4bbc 3b76 4c3c 4ab7 09bd 9e9c 12bd
00000290: 2d8a 843d f30e 0f3b 0ca8 663d 434a 1dbd
000002a0: def2 17bd f06c 393c e0ce d33d 3c2f fc3c
000002b0: 923a 7e3b aeef 5d3d b3f8 8b3d 8445 7aba
000002c0: ec94 d63c d2ff 603c eb45 c63c 68a7 80bb
000002d0: b872 663b d20f f0bc f94e 7639 c3cf f9bc
000002e0: 5577 b6bc aa81 1b3d d437 86bd de2b 09bd
000002f0: 0dee aa3d a30b 163d de45 fa3b 7704 1e3d
00000300: 2cd2 6d3b 6421 973d 4c22 f9bc c823 6e3d
00000310: 264b c03c d939 d33c 221a 84bd 2a65 913c

4.weight f4 [6, 200]
0.026984705 0.03333996 -0.051272456 -0.13472843 0.18314728 -0.057185464 0.14944606 -0.06568851
-0.0134665305 -0.15025593 -0.10115232 0.10428592 0.0036671143 0.04587431 -0.0366144 0.069010116
-0.07523551 0.06573917 -0.041309882 0.0687019 0.015463513 0.104301184 0.0146594765 -0.0523541
-0.18928006 0.13065352 0.01216437 -0.091658235 -0.016727608 -0.017145501 0.037095245 0.11502516
-0.011832698 0.029818062 0.03282299 0.025164578 0.109813355 -0.13267915 0.001264453 -0.09748919
-0.009201626 -0.20044655 -0.02649074 0.06343884 -0.21370059 -0.1559444 -0.03996278 0.015505616
-0.12061485 0.14656182 -0.018879388 0.06783374 0.046721462 -0.088824704 -0.06134947 0.037675302
0.0021766236 0.0044282684 -0.03293527 -0.102798074 0.097912766 0.14348435 -0.016407806 -0.07964222
-0.04075826 -0.028543241 -0.10326947 -0.072449036 0.034265712 0.0377338 0.06363796 -0.06321969
0.036478758 -0.07868193 0.011869888 0.13462877 -0.119410925 0.16542247 0.2127775 -0.108195774
0.12811281 0.064642526 -0.11596458 -0.022929773 -0.10808922 -0.006894629 -0.03984662 0.0714985
-0.08128194 0.17020622 0.031026484 -0.06919902 0.01831084 0.0854608 0.18033601 0.2518997
0.14089474 0.06658651 0.21079293 0.062372644 -0.074659646 0.1934364 0.06981487 -0.006719019
-0.13535024 0.0010547345 -0.002276188 0.13621308 0.10631077 -0.11306032 -0.13236071 -0.054842837
0.14374936 0.049878567 0.054543637 -0.01682092 0.08789399 -0.09429761 0.08925498 0.06714687
-0.1632181 0.03251195 -0.058445986 0.06835519 -0.025716897 0.24458213 -0.050528448 0.052276034
0.16111359 -0.027071446 -0.16927426 -0.11265413 -0.0052385107 -0.07584138 -0.07467605 -0.05351219
0.18047607 -0.013191936 0.024322705 -0.08386024 -0.02272962 -0.060388997 -0.0802604 0.32340884
0.045857735 0.046673816 -0.11009429 0.046407953 0.16781658 -0.03778954 0.0012003342 0.07736284
0.20383458 0.025650512 0.2328107 -0.06490912 -0.09832813 -0.12833777 -0.081192374 -0.029327394
-0.06525346 -0.053048987 0.09159023 -0.050989144 0.003397366 -0.032306455 0.050937995 0.14772569
0.15474404 0.030323405 -0.16054387 0.1519221 0.23839697 0.013422678 -0.04312146 -0.057633016
-0.10277164 -0.06758929 -0.10686137 0.25304347 -0.07577434 0.1351138 0.025912121 0.08068822
-0.045409244 -0.1417541 0.042760972 0.053218875 -0.1631409 -0.15614459 -0.040083535 -0.095504545
-0.10461387 0.062363036 -0.0038636762 -0.10437773 -0.010557183 0.045768037 0.032220513 0.15051924
-0.0072070137 -0.053778287 -0.013695999 0.13972245 -0.18831107 -0.006749781 0.05898551 0.01095709
0.029895423 -0.04248325 -0.028723761 0.03799235 -0.035332553 -0.20733014 -0.037911996 -0.13113354
0.12924775 -0.04412564 0.04642496 -0.004674744 0.03789509 -0.008556631 -0.06661305 0.17978239
0.33743396 -0.014355437 0.0025371963 -0.08368549 0.24124867 -0.00935139 -0.13468157 0.07017649
0.078155845 -0.069581665 0.11083133 0.13186924 -0.094079785 0.04854944 -0.024564061 0.07238601
0.12081147 -0.03718262 0.088375 -0.07654157 -0.042282585 0.08368588 0.047178112 0.040591802
0.23531231 -0.026590444 -0.02041413 0.0844021 0.044636115 -0.033014942 -0.062398117 -0.020065574
00000000: 070f dd3c 7b8f 083d 1103 52bd 40f6 09be
00000010: f68a 3b3e 4e3b 6abd 6308 193e b387 86bd
00000020: b9a2 5cbc b1dc 19be f328 cfbd db93 d53d
00000030: f853 703b b3e6 3b3d fbf8 15bd 2d55 8d3d
00000040: 1315 9abd 42a2 863d 8d34 29bd 95b3 8c3d
00000050: ad5a 7d3c dc9b d53d 4d2e 703c 4171 56bd
00000060: a2d2 41be 09ca 053e 114d 473c 50b7 bbbd
00000070: 5608 89bc b974 8cbc 2ff1 173d 5092 eb3d
00000080: efdd 41bc 0245 f43c 6671 063d f225 ce3c
00000090: d3e5 e03d 0bdd 07be 01bc a53a 6aa8 c7bd
000000a0: 6bc2 16bc dc41 4dbe 1c03 d9bc 39ec 813d
000000b0: 54d4 5abe e4af 1fbe 03b0 23bd 440b 7e3c
000000c0: eb04 f7bd 4d14 163e f2a8 9abc 6aec 8a3d
000000d0: 015f 3f3d bae9 b5bd 9549 7bbd 6b51 1a3d
000000e0: afa5 0e3b 021b 913b 22e7 06bd cc87 d2bd
000000f0: 7d86 c83d 90ed 123e aa69 86bc 761b a3bd
00000100: 22f2 26bd 84d3 e9bc f27e d3bd 2960 94bd
00000110: 345a 0c3d c28e 1a3d 9e54 823d 5379 81bd
00000120: c06a 153d fe23 a1bd eb79 423c 20dc 093e
00000130: b78d f4bd 8264 293e 58e2 593e bf95 ddbd
00000140: 0130 033e 4d63 843d d67e edbd 38d7 bbbc
00000150: e25d ddbd 57ec e1bb 3636 23bd ce6d 923d
00000160: 2577 a6bd 8a4a 2e3e 412b fe3c 37b8 8dbd
00000170: 9d00 963c 1206 af3d 01aa 383e fff8 803e
00000180: b646 103e 825e 883d 1ada 573e 757a 7f3d
00000190: 28e7 98bd 3114 463e 19fb 8e3d 372b dcbb
000001a0: 4199 0abe 043f 8a3a 192c 15bb 717b 0b3e
000001b0: 76b9 d93d 2b8c e7bd 9189 07be e2a2 60bd
000001c0: 0833 133e 784d 4c3d 2669 5f3d 07cc 89bc
000001d0: c401 b43d 1b1f c1bd 51cb b63d 4c84 893d
000001e0: a522 27be 402b 053d 0f65 6fbd cefd 8b3d
000001f0: 3eac d2bc bd73 7a3e ebf6 4ebd 651f 563d
00000200: f6fa 243e f0c4 ddbc 3b56 2dbe 35b7 e6bd
00000210: d0a7 abbb ba52 9bbd c2ef 98bd 992f 5bbd
00000220: b8ce 383e fd22 58bc 6940 c73c ebbe abbd
00000230: 7833 babc 745a 77bd 915f a4bd d895 a53e
00000240: 52d5 3b3d 0b2d 3f3d 1d79 e1bd 4416 3e3d
00000250: 1cd8 2b3e 34c9 1abd 8854 9d3a 6970 9e3d
00000260: 03ba 503e 0621 d23c ee65 6e3e 13ef 84bd
00000270: 4260 c9bd fa6a 03be 3048 a6bd 0140 f0bc
00000280: 9ba3 85bd e549 59bd a993 bb3d fed9 50bd
00000290: 58a6 5e3b c653 04bd 5ca4 503d 6745 173e
000002a0: 3975 1e3e ca68 f83c 9d65 24be 7891 1b3e
000002b0: 561e 743e cbea 5b3c 21a0 30bd 9910 6cbd
000002c0: f079 d2bd 416c 8abd 22da dabd ea8e 813e
000002d0: 942f 9bbd 465b 0a3e a845 d43c de3f a53d
000002e0: 0bff 39bd fd27 11be 2126 2f3d 09fc 593d
000002f0: 680e 27be 5ee4 1fbe a22e 24bd e397 c3bd
00000300: cc3f d6bd 6270 7f3d bb35 7dbb fec3 d5bd
00000310: 09f8 2cbc 4477 3b3d a8f9 033d b721 1a3e
00000320: d028 ecbb 9f46 5cbd 2f65 60bc 6713 0f3e
00000330: 9ed4 40be 442d ddbb ca9a 713d 5e85 333c
00000340: 3fe7 f43c eb02 2ebd 184e ebbc de9d 1b3d
00000350: deb8 10bd 5a4e 54be 9c49 1bbd df47 06be
00000360: 8659 043e 16bd 34bd 1928 3e3d 982e 99bb
00000370: e237 1b3d 1d31 0cbc 6c6c 88bd e018 383e
00000380: 25c4 ac3e 1133 6bbc 1747 263b 4c63 abbd
00000390: e409 773e 9336 19bc f7e9 09be b1b8 8f3d
000003a0: 2c10 a03d d580 8ebd 89fb e23d bb08 073e
000003b0: e7ac c0bd c7db 463d 923a c9bc 1e3f 943d
000003c0: 016c f73d ce4c 18bd f4fd b43d d4c1 9cbd
000003d0: 8130 2dbd 8163 ab3d d63d 413d 9743 263d
000003e0: b6f5 703e 34d4 d9bc 893b a7bc 02db ac3d
000003f0: 5cd4 363d ad3a 07bd 2b95 7fbd 8f60 a4bc

4.bias f4 [6]
-0.07457055 0.036541317 0.123036765 -0.12591247 0.13560443 -0.23158269
00000000: 72b8 98bd 59ac 153d b3fa fb3d 33ef 00be
00000010: e3db 0a3e 0324 6dbe
