classifier.pt (torch_old, 577073 bytes, 6 tensors)

0.weight f4 [200, 512]
0	0xbc6eeb4e	-0.014582468
1	0xbbd25ba1	-0.0064196144
2	0xbbda9dbf	-0.006671637
3	0xbc851d75	-0.016249398
4	0x3d0dc8ee	0.03461545
5	0x3cd85d5f	0.02641171
6	0xbc665871	-0.014059172
7	0x3d390820	0.045173764
8	0x3cda906d	0.026680196
9	0xbcbbd197	-0.022927089
10	0x3d163694	0.036673144
11	0x3d0e0119	0.034669016
12	0x3c92f704	0.017940052
13	0x3d045a1b	0.032312494
14	0x3cb63d0a	0.022245903
15	0xbd14f2e4	-0.03636445
16	0x3c09f678	0.008420579
17	0x3c6b71c9	0.01437039
18	0x3bdfa06d	0.006824544
19	0xbd254cd9	-0.04035649
20	0xbc1c16e4	-0.009526942
21	0x3cc75388	0.024331823
22	0xbc12d98d	-0.008963001
23	0xbcb62356	-0.022233646
24	0x3baaefe6	0.0052165864
25	0xbd304431	-0.043033782
26	0x3d4914a5	0.049091954
27	0x3ca737f1	0.020412417
28	0x3cf1adb1	0.029501768
29	0xbca74b34	-0.020421602
30	0x3c42cce9	0.011889675
31	0x3d1d46c8	0.03839758
32	0x3ca12e7b	0.019675484
33	0xbd19df4d	-0.03756647
34	0xbc289693	-0.010289806
35	0x3ce627a5	0.028095076
36	0xbd0e03b8	-0.034671515
37	0xbc01bd70	-0.007918701
38	0xbbe9a4bd	-0.007130234
39	0x3a5fb066	0.00085330603
40	0x3b32b724	0.0027269805
41	0xbcfd0443	-0.030885821
42	0xbcffab5b	-0.031209638
43	0x3ccbde16	0.024886172
44	0xbcd79814	-0.026317634
45	0x3cb49cd7	0.022047443
46	0xbcbe1b53	-0.023206389
47	0x3ab90f85	0.0014119005
48	0xbcc5aff4	-0.024131753
49	0x3b93c3c1	0.0045094197
50	0x3bbfc838	0.0058527254
51	0x3bb61d5d	0.0055576996
52	0x3bb405d1	0.0054938574
53	0x3c70b9b4	0.014692713
54	0x3ce26681	0.027636768
55	0xbc580f55	-0.013187249
56	0x3c94c55b	0.018160513
57	0x3ae1a9cc	0.0017216741
58	0xbcf6cbd2	-0.030126486
59	0xbb82d9f1	-0.003993266
60	0xbca8c415	-0.020601312
61	0xbcb1d8f2	-0.021709893
62	0x3d295fe3	0.04135121
63	0x3c7d5433	0.015461969
64	0x3c93f479	0.01806091
65	0xbcbda9ba	-0.023152221
66	0xbbf7e5fe	-0.007565259
67	0xbb22d6f4	-0.002484736
68	0xbd051a22	-0.032495625
69	0x3c9910d7	0.018684788
70	0x3d1bef4b	0.038070004
71	0x3a922216	0.0011149074
72	0xbd14a488	-0.03628972
73	0xbc615302	-0.013752701
74	0x3ad82bed	0.0016492583
75	0x3cc1fc83	0.023679977
76	0xbd312db4	-0.043256477
77	0x3c87a75b	0.016559293
78	0xbcb56ae5	-0.022145698
79	0xbc16aafa	-0.009196037
80	0xbbbd3c73	-0.0057750284
81	0xbd3eb1dd	-0.046556342
82	0xbbe72c8e	-0.007054872
83	0x3d388c7d	0.045055855
84	0xbbff777f	-0.0077962275
85	0xbc4f531d	-0.012654093
86	0xbc63c019	-0.01390078
87	0x3a69a0ed	0.00089122244
88	0x3cf41f96	0.029800218
89	0xbc4eccca	-0.012622068
90	0x3cf62c9c	0.030050568
91	0xbd31d8d6	-0.04341968
92	0x3d22e00d	0.039764453
93	0xbc0d989a	-0.00864234
94	0x3c795691	0.015218393
95	0x3cb36dc8	0.021902934
96	0x3d21c439	0.039493773
97	0xbc844cd4	-0.016149916
98	0xbd2f3568	-0.04277554
99	0xbc88863d	-0.016665572
100	0x3c88add7	0.016684456
101	0x3c5ebc65	0.013594721
102	0x3c74716a	0.014919618
103	0xbc846e99	-0.016166018
104	0xbd275b27	-0.040858414
105	0xbd2a8ede	-0.041640155
106	0xbaf7ef7b	-0.0018915975
107	0x3bcd3a23	0.006263034
108	0x3c308b59	0.010775411
109	0xbbfbf1e2	-0.007688747
110	0x3d04439c	0.03229104
111	0x3cf020f2	0.029312585
112	0x3d053234	0.03251858
113	0xbcfa4047	-0.030548228
114	0xbd095faa	-0.033538498
115	0xbce8c4bf	-0.028414128
116	0x3b6c1b28	0.0036026929
117	0xb9477dd7	-0.00019024998
118	0x3c93bf94	0.018035688
119	0x3cde0ab4	0.027104713
120	0xbcb157f8	-0.021648392
121	0xbbd7b615	-0.006582985
122	0x3cb19abd	0.02168023
123	0xbcb28141	-0.021790149
124	0xbc029fe3	-0.00797269
125	0xbc3219b9	-0.010870391
126	0xbc971398	-0.01844196
127	0x3bc32906	0.005955818
128	0x3d2e08ba	0.04248879
129	0xbd2d17a5	-0.042258877
130	0xbb4148a3	-0.0029492758
131	0xbd1a1995	-0.037622053
132	0xbb98d92f	-0.004664562
133	0xbc352fd9	-0.011058771
134	0x3c60d3b1	0.013722346
135	0x38f81e91	0.00011831255
136	0x3cfe8d46	0.031073224
137	0x3d24a38c	0.040195033
138	0x3c91f3ee	0.01781651
139	0xbcf0e5b3	-0.029406404
140	0x3d20631e	0.039157026
141	0xbaa0165a	-0.0012213693
142	0xbc06a2fe	-0.008217571
143	0x3c2b0bfd	0.01043987
144	0x3d1dc096	0.038513742
145	0xbc074d40	-0.008258164
146	0x3cf6d984	0.030133016
147	0x3bf33654	0.007422248
148	0x3cb7e009	0.022445695
149	0x3cccd5e8	0.025004342
150	0xbcae9bd7	-0.021314545
151	0x3d31cc76	0.04340788
152	0x3d54c526	0.051945828
153	0xb9b84058	-0.00035143155
154	0x3d23cdc5	0.03999116
155	0xbd2ba2d9	-0.04190335
156	0xbd312e0a	-0.043256797
157	0xbcf48f7d	-0.029853577
158	0x3c65be6e	0.014022453
159	0xbcef4f45	-0.029212603
160	0xbc41ef89	-0.011836895
161	0x3c1e1b63	0.009650084
162	0xbd583163	-0.052781474
163	0xbd391116	-0.04518231
164	0x3d2d2a70	0.0422768
165	0x3d57ab77	0.052653756
166	0xbceb16df	-0.02869743
167	0x3c82e2b4	0.015977241
168	0x3cf3e9e6	0.029774617
169	0x3d11768e	0.035513453
170	0x3d2c5a63	0.042078387
171	0xbcb0d5f4	-0.021586396
172	0xbb9ba505	-0.0047498965
173	0xbcdc0e0a	-0.026862163
174	0x3d261ab8	0.040552825
175	0x3d04d93c	0.032433733
176	0x3a47722d	0.0007608261
177	0x3b352fbd	0.0027646862
178	0xbd4861ac	-0.048921272
179	0x3c3f64d3	0.011681753
180	0xbcc510b8	-0.024055824
181	0xbcae7f2e	-0.021300878
182	0xbbd327d0	-0.006443955
183	0xbd18309c	-0.037155733
184	0xbc0b18f7	-0.008489839
185	0x3c524230	0.012833163
186	0x3d1576b2	0.03649015
187	0x3cbfc216	0.023407977
188	0xbb9e2aac	-0.004826864
189	0xbc6097fa	-0.013708109
190	0x3d116c88	0.035503894
191	0x3ab60bf5	0.0013889062
192	0x3d0b25cd	0.033971597
193	0x3bb585c6	0.0055396287
194	0xbcf4d605	-0.029887209
195	0x3c176e38	0.009242587
196	0x3c7ba034	0.01535802
197	0xb98d3af0	-0.00026937528
198	0x3d51f3fe	0.05125808
199	0x3b95b540	0.004568726
200	0xbcb8d1a5	-0.022560904
201	0xbd38a9ca	-0.0450838
202	0xbd56b351	-0.052417103
203	0x3d2823c9	0.041049752
204	0xbc130bc9	-0.008974978
205	0xbb8ff5cb	-0.0043933145
206	0x3ce0d83c	0.027446859
207	0xbd0625fc	-0.03275107
208	0xbce46564	-0.027880378
209	0x3cdf761e	0.027278002
210	0x3c5fdf04	0.013664011
211	0xbce122be	-0.027482387
212	0x3ccb1837	0.02479182
213	0xbc160364	-0.009156082
214	0xbce87260	-0.02837485
215	0x3ab33bf9	0.001367449
216	0x3b7526c3	0.0037407137
217	0x3b41643b	0.0029509205
218	0xbca8d5ef	-0.020609824
219	0xbbec502d	-0.007211706
220	0x3c93cbf4	0.018041588
221	0x3d2ab3e3	0.04167546
222	0xbc101b94	-0.008795638
223	0x3ce33237	0.027733905
224	0xba2857a8	-0.0006421753
225	0x3d61d942	0.055138834
226	0x3d04599c	0.03231202
227	0xbcf1deb0	-0.029525131
228	0x3cf9aadf	0.030476985
229	0x3cbd9f98	0.02314739
230	0xbb9abcef	-0.0047222297
231	0xbd2845f7	-0.04108235
232	0xbc3521ec	-0.011055451
233	0x3d43353d	0.047658194
234	0x3bc438e2	0.0059882263
235	0xb98528d6	-0.00025398162
236	0xbc5dc788	-0.0135363415
237	0xbd135f38	-0.03597948
238	0x3c4f784e	0.01266296
239	0xbd142a87	-0.03617337
240	0x3cc796e7	0.024363948
241	0xbd1556dd	-0.036459792
242	0xbc48c80f	-0.012254729
243	0x3cbba2ec	0.022904836
244	0xbd39d127	-0.04536548
245	0x3cd7d34a	0.026345868
246	0xbb518407	-0.0031969564
247	0x3c10201c	0.008796718
248	0x3c947c2a	0.018125612
249	0xbbbc60a2	-0.005748824
250	0x3cd3118e	0.025765207
251	0x3cda6907	0.026661409
252	0x3ca51089	0.020149486
253	0x3d0306ce	0.03198891
254	0xbbc9c358	-0.00615732
255	0x3d37a4d8	0.04483494

0.bias f4 [200]
0	0x3b0f887f	0.0021901426
1	0x3d476ad2	0.048685856
2	0x3c8e378b	0.01736047
3	0x3db94808	0.09046942
4	0x3c8da4be	0.01729047
5	0x3d51b7f5	0.051200826
6	0x3d4c9eb3	0.049956035
7	0x3d38bbee	0.0451011
8	0x3d083635	0.03325482
9	0x3ccffd9e	0.025389489
10	0xbba9a47a	-0.005177078
11	0xbc8623d4	-0.016374506
12	0x3d7a8f95	0.061172087
13	0xba059c1e	-0.00050968106
14	0x3d1f5936	0.038903438
15	0x3d69c11a	0.05706892
16	0x3c4f2b85	0.012644653
17	0xbd14931b	-0.036273103
18	0x3c86d05c	0.016456775
19	0x3d108739	0.03528521
20	0x3cb672aa	0.022271473
21	0xbc7cfb8b	-0.015440832
22	0x3b05ba77	0.002040533
23	0xbd598e5c	-0.05311428
24	0x3d6126bd	0.054968584
25	0x3d7df188	0.06199792
26	0x3ccbe70d	0.024890447
27	0xbbf83f05	-0.007575872
28	0x3d051e67	0.032499697
29	0xbc62c829	-0.013841667
30	0x3d9c91d7	0.07645004
31	0x3ccc0764	0.024905868
32	0x3da3eb4c	0.08003864
33	0x3bf58572	0.0074927146
34	0x3c29f4eb	0.010373334
35	0x3ce202f4	0.027589299
36	0xbc7f6cbd	-0.01558989
37	0x3d5796a7	0.052633908
38	0x3d98fc9d	0.07470057
39	0x3cf3826a	0.029725272
40	0xbcbbe817	-0.022937817
41	0x3d68c378	0.05682704
42	0x3ca56ca9	0.020193415
43	0x3d912a0e	0.070880994
44	0x3d3bf17d	0.045884598
45	0x3db6e4dd	0.08930371
46	0x3c81ffe4	0.015869088
47	0x3c32ab80	0.010905147
48	0xbc68bb53	-0.014204818
49	0x3b3cb51e	0.0028794478
50	0x3bc7e968	0.0061008222
51	0x3d53f410	0.051746428
52	0x3d0fa236	0.035066806
53	0xbd35bd33	-0.044369888
54	0x3df766b5	0.12080137
55	0x3d4c3805	0.049858112
56	0x3cf603f9	0.030031191
57	0x3d11fb37	0.035639968
58	0x3da708ed	0.08155999
59	0x3bbf3c07	0.0058360132
60	0xbb012bf6	-0.001971004
61	0x3d102f05	0.03520109
62	0x3c226fb5	0.009914328
63	0xbb23cda7	-0.0024994405
64	0xba6f2256	-0.0009122243
65	0xbb5b38a5	-0.003345051
66	0xbcdc17af	-0.026866762
67	0xbca0d304	-0.01963187
68	0xbc5db6da	-0.013532365
69	0xbc0bcb56	-0.008532366
70	0x3c34f198	0.011043929
71	0x3c71da71	0.014761553
72	0x3d4cc28e	0.04999023
73	0x3cd5c72f	0.026095955
74	0xbc425d47	-0.011863059
75	0x3d23c008	0.039978057
76	0xbcbe62ac	-0.02324041
77	0xbd20f44d	-0.039295483
78	0x3c245cf1	0.010031925
79	0x3dd73670	0.1050843
80	0x3c6a2a42	0.014292302
81	0x3d567aaf	0.052363094
82	0xbb99acac	-0.0046897735
83	0x3c788020	0.015167266
84	0x3a1d4558	0.0005999408
85	0x3c89b829	0.016811447
86	0xbcc6f7ea	-0.024288137
87	0xbcd31d9f	-0.02577096
88	0x3d26e53c	0.04074596
89	0xbccb7dd6	-0.024840277
90	0x3c0de423	0.008660349
91	0x3dacb2ad	0.08432517
92	0x3cc80eb1	0.024421068
93	0xbd83938b	-0.06424626
94	0xbc03f305	-0.008053546
95	0x3d3654dc	0.044514522
96	0x3d078c7b	0.033092957
97	0x3db18e70	0.08669746
98	0xbca0c05c	-0.019622974
99	0x3cec55ed	0.028849566
100	0x3d907955	0.07054392
101	0x3d5cbb54	0.053889588
102	0x3cb68a8d	0.022282863
103	0x3c5e788b	0.013578544
104	0xbb981f98	-0.004642438
105	0x3be9ff8f	0.0071410607
106	0x3d18769a	0.037222482
107	0xbb00e3f1	-0.0019667114
108	0x3b9868c9	0.0046511632
109	0x3c996604	0.018725403
110	0x3d949c16	0.072563335
111	0xbb72ccd5	-0.003704836
112	0x3c9ef91c	0.019405894
113	0x39611ac0	0.00021467637
114	0x3d9e3309	0.07724578
115	0x3d43115a	0.04762397
116	0x3d2a183a	0.04152701
117	0x3d1264b3	0.035740566
118	0xbb8d3149	-0.0043088538
119	0xbc2a4473	-0.010392296
120	0x3d42aabc	0.047526106
121	0xbad8af84	-0.00165318
122	0x3cd79237	0.026314838
123	0x3aa77a85	0.0012777603
124	0x3c9f99ad	0.019482458
125	0x3d47ff29	0.048827324
126	0x3d87374e	0.066023454
127	0x3d32d81b	0.043663125
128	0xbbd2870a	-0.0064247893
129	0x3d2cf92c	0.042229816
130	0x3c521356	0.012821993
131	0x3d5bfac4	0.053705946
132	0x3d84449d	0.064583994
133	0x3d4539f1	0.04815096
134	0xbc102d17	-0.008799813
135	0x3c5b580c	0.013387691
136	0x3d2db59c	0.042409524
137	0xbcdce1ac	-0.026963077
138	0x3cb6583e	0.022258874
139	0x3d383986	0.044976734
140	0x3d95c783	0.073134445
141	0x3d8ff86e	0.07029806
142	0xbb7ee5cf	-0.00388943
143	0x3d6528d0	0.055947125
144	0xbb3d9e51	-0.0028933475
145	0x3d2bac11	0.041912142
146	0xbbcd2a7d	-0.0062611685
147	0xbc63085c	-0.0138569735
148	0xbb5c2b4f	-0.003359515
149	0x3dc136a6	0.094342515
150	0x3cef60cb	0.02922096
151	0x3bc466e0	0.005993709
152	0xbcbf16da	-0.023326326
153	0xbcff986e	-0.031200614
154	0x3c64a584	0.013955478
155	0x3c028a8b	0.0079676015
156	0xbc0efc58	-0.008727156
157	0x3a11568d	0.0005544208
158	0x3d19978a	0.037498035
159	0x3d3cf3a9	0.04613081
160	0xbcbe97e2	-0.023265783
161	0x3cb0aba1	0.021566214
162	0x3d3867bf	0.045020815
163	0x3cf2c95a	0.029637028
164	0xbce43a53	-0.027859842
165	0xbd4c104b	-0.049820226
166	0x3d97f3a0	0.07419515
167	0x3860ee8f	5.3627937e-05
168	0x3d622fde	0.05522143
169	0xbc801aae	-0.015637722
170	0x3d1cd38f	0.038287695
171	0xbc3d65e7	-0.01155994
172	0x3ceadaa8	0.028668717
173	0xbb41c04b	-0.0029564078
174	0x3cd9c740	0.026584268
175	0x3c6b727a	0.014370555
176	0x3ca3e8f0	0.020008534
177	0xbc61165c	-0.013738241
178	0xbca432f9	-0.020043837
179	0x3cb285b5	0.021792272
180	0x3c55fe1d	0.013061074
181	0xbc99b42c	-0.01876267
182	0x3d682161	0.056672458
183	0xbce43832	-0.027858827
184	0x3d42ebc5	0.04758813
185	0xbc7ba82a	-0.015359918
186	0xbd0c6129	-0.034272347
187	0x3ce28885	0.027652988
188	0xbc90d1e5	-0.01767821
189	0x3b85fd7a	0.0040890547
190	0xbcc5c8ab	-0.024143538
191	0x3bba0e4c	0.005677974
192	0x3d2c3eb5	0.04205199
193	0xbbbf5ac4	-0.0058396775
194	0x3cc642f0	0.02420184
195	0xbd1aac69	-0.03776208
196	0x3c4c4935	0.012468626
197	0xbcb01c37	-0.021497829
198	0x3d2c82cb	0.04211692
199	0x3dd50cd1	0.10402835

2.weight f4 [200, 200]
0	0xbc89bba4	-0.016813107
1	0xbd634d9e	-0.055493943
2	0xbd3ed9d4	-0.046594456
3	0xbd75f41f	-0.060047265
4	0x3d126199	0.035737608
5	0x3c735ca4	0.01485363
6	0xbbbdbd96	-0.0057904227
7	0x3d878097	0.066163234
8	0x3d821214	0.063511044
9	0xbd697142	-0.056992777
10	0x3c079285	0.008274679
11	0x3d66e7f7	0.056373563
12	0xbd7466b1	-0.059668247
13	0x3bf722b7	0.00754198
14	0x3d601370	0.054706037
15	0x3d48f2bd	0.04905962
16	0xbccffdef	-0.02538964
17	0xbcd87a50	-0.02642551
18	0xbc784947	-0.015154189
19	0x3d300390	0.042972147
20	0x3d42fef9	0.047606442
21	0x3ce6e58b	0.028185626
22	0x3d1cc304	0.03827192
23	0xbd75daac	-0.060022995
24	0x3cb9334d	0.02260747
25	0xbce25141	-0.027626636
26	0xbd1be5a1	-0.038060788
27	0xbced06dd	-0.028933937
28	0xbd60bbad	-0.05486648
29	0xbd465f7e	-0.048430912
30	0xbc7adba5	-0.015311156
31	0x3b08ebb5	0.0020892445
32	0x3d8c8a1c	0.0686228
33	0xbd4407b6	-0.047858916
34	0xbd8e784c	-0.069565386
35	0x3cc5ed14	0.0241609
36	0xbd424baf	-0.04743546
37	0x3d558ad5	0.052134354
38	0xbd8c0fa2	-0.06838919
39	0xbb0179d4	-0.0019756453
40	0xbda06eb5	-0.07833616
41	0xbd4f6c44	-0.05064036
42	0xbc5fceaa	-0.013660112
43	0xbd514f69	-0.051101122
44	0x3d90fa68	0.07079011
45	0xbd25a7bb	-0.040443163
46	0xbd1e330f	-0.038622912
47	0xbc8c1469	-0.017099576
48	0x3d74e057	0.05978426
49	0x3d101272	0.03517384
50	0x3c492403	0.012276652
51	0x3d35e559	0.044408176
52	0xbd4df776	-0.050284825
53	0xbc887df6	-0.016661625
54	0xbd056381	-0.032565597
55	0x3d18fb0c	0.037348792
56	0x3d8232e0	0.0635736
57	0xbd7b8d23	-0.061413895
58	0xbd87af12	-0.06625189
59	0x3d5d6d3e	0.05405926
60	0xbd08af4c	-0.0333703
61	0x3d80fdf4	0.06298438
62	0xbd5fa0bf	-0.05459666
63	0x3ca4629f	0.020066557
64	0x3d84ddf6	0.06487648
65	0xbc665ea0	-0.014060646
66	0xbcd8d8be	-0.026470538
67	0x3bb943c1	0.005653829
68	0xbd412a6d	-0.0471596
69	0xbcfa2ac1	-0.030537965
70	0xbd925fd3	-0.07147183
71	0xbd4fa2d9	-0.050692413
72	0xbd571a45	-0.052515287
73	0xbd4e8e55	-0.050428707
74	0x3d36ac3c	0.04459785
75	0x3d9912a3	0.07474258
76	0xbc7851e0	-0.015156239
77	0xbd7b9915	-0.061425287
78	0x3c7bb541	0.0153630385
79	0xbd20c91b	-0.03925429
80	0xbcca04cd	-0.024660492
81	0x3c1ef505	0.009701972
82	0xbd82e3c3	-0.06391098
83	0x3d6f6f15	0.058455545
84	0xbc4d3b39	-0.012526327
85	0xbd309bdd	-0.043117393
86	0xbd4b28ad	-0.04959934
87	0xbd86b89d	-0.06578181
88	0xbc6846f4	-0.014177073
89	0x3bd80324	0.0065921713
90	0x3d944d64	0.072413236
91	0xbd0620f8	-0.032746285
92	0xbd335f83	-0.04379226
93	0x3d598018	0.053100675
94	0xbcf1b85d	-0.029506857
95	0x3d4e27a9	0.05033079
96	0x3d51d402	0.051227577
97	0x3d9586f5	0.07301132
98	0x3c19d831	0.009389923
99	0xbcc4a3ca	-0.024003882
100	0x3caa9f45	0.020827899
101	0xbd157e95	-0.03649767
102	0x3bcd8c16	0.006272803
103	0x3d4651ed	0.048417974
104	0xbd801842	-0.06254627
105	0x3d978efc	0.07400319
106	0xbd6d4c4d	-0.057934094
107	0x3d77b606	0.060476325
108	0xbd0c9157	-0.034318294
109	0x3d4eeac0	0.050516844
110	0x3d3e666e	0.046484403
111	0xbc15bfd8	-0.009139977
112	0xb9305189	-0.00016815042
113	0xbd4eaae4	-0.050455943
114	0xbc7072d2	-0.014675813
115	0x3cdc8200	0.026917458
116	0x3cef2a34	0.029194929
117	0x3d889ccb	0.06670531
118	0xbd373ab8	-0.044733733
119	0x3d07ea17	0.03318223
120	0xbb741d72	-0.0037248996
121	0xbc5cbb9f	-0.013472467
122	0xbc4f9d1c	-0.012671735
123	0x3d812964	0.06306723
124	0x3cb33ace	0.021878626
125	0x3cb86c67	0.022512628
126	0x3bc1d4ad	0.0059152455
127	0x3cfd096e	0.030888285
128	0x3d287b20	0.041133046
129	0xbcbf5bd0	-0.02335921
130	0xbcfd5f95	-0.030929366
131	0xbc4f40a0	-0.012649685
132	0x3c69c797	0.014268777
133	0x3d3488e1	0.04407585
134	0x3cbccdf8	0.023047432
135	0x3c743dee	0.014907343
136	0xbd4c21bf	-0.04983687
137	0xba1cf977	-0.0005988101
138	0xbb448c4f	-0.0029990857
139	0x39720103	0.00023079295
140	0xbbc0e832	-0.005887055
141	0xbd7a58cf	-0.06111985
142	0x3d7a04d3	0.061039757
143	0x3d43faa8	0.047846466
144	0xbcf26945	-0.029591212
145	0x3d71eb32	0.05906219
146	0xbd60db13	-0.054896425
147	0x3d4123b8	0.047153205
148	0xbcc3e1cc	-0.02391138
149	0x3bd10d48	0.006379757
150	0x3d6f2301	0.05838299
151	0x3cacfd51	0.021116884
152	0x3cf9843d	0.030458564
153	0x3d80473f	0.06263589
154	0x3c2f77a8	0.010709681
155	0xbba32fa8	-0.0049800463
156	0xbcdec069	-0.027191358
157	0xbd1d4416	-0.03839501
158	0x3d7aa898	0.06119594
159	0xbc872e68	-0.01650162
160	0xba0b443d	-0.00053125975
161	0x3d8c39f2	0.0684699
162	0x3d29c6f0	0.041449487
163	0x3cfc3bba	0.030790199
164	0x3cb95575	0.022623757
165	0xb9644a9c	-0.00021771569
166	0xbd65d482	-0.056110866
167	0x3ce8bcdc	0.028410368
168	0xbd771b0f	-0.06032854
169	0x3d53244b	0.051548284
170	0xb991fa92	-0.00027843245
171	0xbbe28a33	-0.0069134473
172	0x3cc0aadd	0.023518974
173	0xbc811fd0	-0.01576224
174	0xbc4a9406	-0.012364393
175	0xbd94854d	-0.072519876
176	0xbd58d7c2	-0.052940138
177	0xbb4b5fcc	-0.0031032441
178	0x3d1676f0	0.03673452
179	0x3d29701d	0.041366685
180	0x3c866489	0.01640536
181	0xbd2bfde5	-0.04199018
182	0x3d1dd9cf	0.038537797
183	0xbbf92c42	-0.007604153
184	0xbd331a96	-0.043726526
185	0x3d55592d	0.052086998
186	0xbd1a6191	-0.037690703
187	0xbc77c3af	-0.015122338
188	0xbbcfba14	-0.006339321
189	0x3d9a1b3b	0.07524725
190	0x3d042b2a	0.032267727
191	0x3d407011	0.046981875
192	0xbc89338c	-0.016748212
193	0xbd8655cc	-0.06559333
194	0xbd8394c9	-0.06424863
195	0x3d04e253	0.032442402
196	0xbd149c69	-0.036281977
197	0xbd8dd122	-0.069246545
198	0x3d7b7d16	0.061398588
199	0xbc085c23	-0.008322748
200	0xbcb6f458	-0.022333309
201	0x3d515f13	0.05111606
202	0x3b334a0c	0.0027357368
203	0xbcce6bda	-0.025197912
204	0x3d28d837	0.041221824
205	0x3d377d56	0.044797264
206	0x3d27aeb1	0.040938083
207	0x3d89f4a2	0.06736113
208	0xbd492579	-0.049108002
209	0xbcff6775	-0.031177262
210	0x3b9e505c	0.004831357
211	0x3d876af9	0.066122
212	0xbd751c34	-0.05984135
213	0x3bbe0187	0.005798522
214	0x3d1b7bb1	0.03795976
215	0x3d2a9e19	0.04165468
216	0xbccd282b	-0.025043568
217	0x3d8b2440	0.067940235
218	0x3c94ec2c	0.018179022
219	0x3be1daa8	0.006892521
220	0xbbbd24f6	-0.0057722284
221	0x3cc87228	0.024468496
222	0xbd4e8467	-0.050419237
223	0x3c87eebe	0.016593333
224	0x3b848544	0.004044207
225	0x3d800d61	0.06252552
226	0xbb8bf1f8	-0.0042707883
227	0x3d41d228	0.04731956
228	0x3c103524	0.008801732
229	0xbcf5621b	-0.029954007
230	0x3da23e59	0.07922048
231	0xbcf4b578	-0.029871687
232	0x3cae3c10	0.021268874
233	0x3d7804d1	0.06055147
234	0xbd0b30af	-0.033981975
235	0x3d3b27a2	0.045692094
236	0xbd8ab2f4	-0.06772414
237	0xbd8dfb32	-0.06932677
238	0x3d912980	0.070879936
239	0x3ccaa143	0.024735099
240	0xbd203627	-0.039114144
241	0xbc3b51a9	-0.0114330435
242	0x3d4fa841	0.05069757
243	0xbd2f619c	-0.042817697
244	0x3c5ba9c5	0.013407175
245	0x3c24d2e3	0.010060045
246	0xbd7f4e82	-0.06233073
247	0x3d8035c3	0.06260254
248	0xbd063c8a	-0.03277258
249	0xbc6512d3	-0.013981539
250	0xbd52adf1	-0.051435415
251	0xbd7907ba	-0.060798384
252	0xbd24d1cb	-0.040239137
253	0x3c895e90	0.016768724
254	0x3cff14b0	0.031137794
255	0xbcd0f956	-0.025509518

2.bias f4 [200]
0	0x3d170408	0.03686908
1	0x3d8a9fb6	0.06768744
2	0x3de75261	0.112950094
3	0x3d8accba	0.0677733
4	0xbbe5ac99	-0.0070091006
5	0x3d0882c2	0.033327825
6	0xbd0bc172	-0.03412003
7	0x3c8c579f	0.017131625
8	0x3da50ba0	0.08058858
9	0x3d279970	0.040917814
10	0x3cac8fe9	0.021064715
11	0x3d3d3343	0.046191465
12	0x3d634bdd	0.05549227
13	0xbc5db565	-0.013532017
14	0x3c6bea19	0.014399075
15	0xbd02e158	-0.031953186
16	0xbc2443fd	-0.010025975
17	0xbd168789	-0.03675035
18	0x3c700554	0.014649708
19	0x3db6ceb9	0.08926148
20	0xbb82d0a0	-0.003992155
21	0xbc8ac962	-0.01694173
22	0xbc695f6a	-0.01424394
23	0x3dae6c60	0.08516765
24	0x3da46b0b	0.08028229
25	0x3c4bd63d	0.012441215
26	0x3cde7efa	0.027160157
27	0xbd86268f	-0.06550323
28	0xbbab472c	-0.00522699
29	0x39aa423c	0.00032474275
30	0xbd2b961b	-0.0418912
31	0x3d26229f	0.04056036
32	0x3c7d04f4	0.015443075
33	0xbc41261e	-0.011788873
34	0xbced8045	-0.028991828
35	0x3ddab0b1	0.106782325
36	0x3d6c0e01	0.057630543
37	0x3db8f5e9	0.09031279
38	0x3a8d23c8	0.001076811
39	0x3da192b1	0.07889307
40	0xbcecb006	-0.028892528
41	0x3d8e8bc4	0.06960252
42	0xb8f700e1	-0.000117780415
43	0xbd207b24	-0.039179936
44	0x3dfe2245	0.1240888
45	0x3d9a4620	0.075329065
46	0x3d926506	0.07148175
47	0x3c893e1e	0.016753253
48	0x3bdd3f37	0.0067519206
49	0xbd81fa7f	-0.063466065
50	0xbd8409d1	-0.06447185
51	0x3d6a520f	0.057207163
52	0x3d7124b6	0.0588729
53	0x3d49f429	0.049305115
54	0x3b18962f	0.0023282876
55	0x3dc391ae	0.095492706
56	0xbc080497	-0.008301876
57	0x3c58bd85	0.013228779
58	0x3d06f326	0.03294673
59	0xbc14a07e	-0.009071467
60	0x3d613594	0.054982737
61	0x3d4e5da2	0.050382264
62	0x3ca5ec9a	0.020254422
63	0x3ceb7ed2	0.028746996
64	0x3dc5c6e8	0.09657079
65	0x3d39601f	0.045257684
66	0xbcc597ca	-0.02412023
67	0xbb10d8bc	-0.002210184
68	0x3d45e225	0.04831137
69	0x3dc4fa71	0.096180804
70	0xbd33272e	-0.043738537
71	0x3da263a1	0.07929159
72	0x3d2d7b41	0.042353872
73	0x3d861402	0.06546785
74	0x3d36ebb9	0.044658396
75	0xbcea8fce	-0.028633025
76	0x3d277e53	0.040891957
77	0xbcdd63ef	-0.027025191
78	0x3d504471	0.05084652
79	0xbcb921dc	-0.022599153
80	0xbd31214f	-0.043244656
81	0x3d82ab77	0.063803606
82	0x3dcadb53	0.09905114
83	0xbd2ab54d	-0.04167681
84	0x3d9079c4	0.07054475
85	0x3d3d59e2	0.046228297
86	0xbc757dd4	-0.014983613
87	0x3c60a4e6	0.01371119
88	0xbcec0f39	-0.028815852
89	0xba8a0190	-0.001052903
90	0x3bd3d3f0	0.006464474
91	0xbcd64bba	-0.026159156
92	0x3d80124e	0.06253491
93	0xbd42a28b	-0.047518294
94	0xbcbf3547	-0.023340834
95	0x3ced382e	0.028957453
96	0x3912f6cd	0.00014015585
97	0x3d91bfdd	0.07116673
98	0x3c7b6c0d	0.0153455855
99	0x3d9b44d0	0.07581484
100	0xbca691e1	-0.020333232
101	0x3d8a4226	0.06750898
102	0x3dcbb6d3	0.0994698
103	0xbca04a27	-0.019566609
104	0x3d107b74	0.035273984
105	0x3ccae733	0.024768448
106	0x3d9f8843	0.07789662
107	0x3c123ed0	0.0089261085
108	0x3d6b3375	0.05742212
109	0x3dcf711b	0.10128995
110	0x3b23a96e	0.0024972814
111	0x3b880b7e	0.0041517606
112	0x3dd4f1b4	0.10397664
113	0x3dcc58da	0.099778846
114	0x3c12e33c	0.00896531
115	0x3ceb0ff2	0.028694127
116	0x3d76b495	0.06023081
117	0x3dac3aad	0.08409629
118	0x3dd03f72	0.10168351
119	0x3cf13c6e	0.02944776
120	0x3d0bdfd7	0.034149017
121	0x3da87dbc	0.08227107
122	0xba2f13cf	-0.0006678672
123	0x3dd29ec1	0.10284186
124	0xbd09825c	-0.033571586
125	0x3ced93aa	0.029001076
126	0x3da5c211	0.08093656
127	0xbb6207ae	-0.003448944
128	0xbcf0357d	-0.02932238
129	0x3d59cc12	0.053173132
130	0x3d6704d1	0.056401078
131	0xbcff66a3	-0.03117687
132	0xbcda8ed7	-0.02667944
133	0xbd4d6766	-0.050147437
134	0x3d353ab6	0.044245444
135	0x3d266a14	0.040628508
136	0xbad7e2b6	-0.0016470763
137	0xbb799551	-0.0038083384
138	0x3d090313	0.033450197
139	0x3de72647	0.11286598
140	0xbd3dec37	-0.04636785
141	0xbd141bdf	-0.036159392
142	0xbcbea5ee	-0.02327248
143	0x3d56a631	0.052404586
144	0xbcf360df	-0.029709278
145	0x3d840848	0.06446892
146	0xbd793c19	-0.06084833
147	0x3de7be09	0.11315543
148	0x3ccb488c	0.024814866
149	0xbc897570	-0.016779631
150	0x3d9f09f2	0.07765569
151	0xbc8b5e39	-0.017012702
152	0xbb54d755	-0.003247698
153	0x3cd6c3c1	0.02621639
154	0xbc3ff9ce	-0.011717273
155	0x3d7a6ebd	0.061140765
156	0x3d83ca14	0.06435028
157	0x3d6285db	0.055303436
158	0xbd694429	-0.05694977
159	0x3a669597	0.00087960943
160	0x3d26d7c8	0.04073313
161	0x3cc81ea5	0.024428675
162	0x3db42783	0.08796599
163	0xbb449b46	-0.0029999777
164	0x3d7c3655	0.061575253
165	0x3d0b5265	0.034014124
166	0x3d469eed	0.048491407
167	0xbd85c1c0	-0.065310955
168	0x3cbb681a	0.022876788
169	0x3dbb6c44	0.091515094
170	0x3cf07961	0.029354753
171	0x3d9e8a97	0.07741278
172	0xbc5a19d2	-0.01331182
173	0x3d4f866a	0.050665297
174	0xbd1e49da	-0.03864465
175	0x3d4731db	0.04863153
176	0x3d8ee916	0.06978051
177	0x3d0b0dc2	0.033948667
178	0x3d00be87	0.0314317
179	0x3c980844	0.018558629
180	0x3d333c29	0.043758545
181	0x3d1dab1d	0.038493264
182	0x3befc1c1	0.0073167984
183	0xbd87b8e5	-0.06627063
184	0x3d4272f6	0.047472917
185	0x3db7cc9c	0.08974573
186	0x3df5abac	0.119956344
187	0x3cfe5d0f	0.031050233
188	0xbc57e22d	-0.013176483
189	0xbcdf2002	-0.027236942
190	0x3d7fdef1	0.062468473
191	0x3de4bc78	0.1116876
192	0x3d701ccf	0.058621224
193	0x3c69c207	0.014267451
194	0xbc6f3ccc	-0.014601897
195	0x3ce8d872	0.028423522
196	0xbd4c7948	-0.04992035
197	0x3cce6e45	0.025199065
198	0x3d9eecfa	0.077600434
199	0x3d4738d6	0.048638187

4.weight f4 [6, 200]
0	0x3dae80f3	0.08520689
1	0xbd3b8147	-0.045777585
2	0xbe026e8d	-0.12737484
3	0xbbdd18a4	-0.006747322
4	0x3bc7a45e	0.006092592
5	0xbd70ed95	-0.058820326
6	0x3d9e8bec	0.07741532
7	0xbe04d926	-0.1297346
8	0xbad9f0f0	-0.0016627591
9	0xbcae0f9d	-0.02124768
10	0xbe111de3	-0.14171557
11	0x3c9459d3	0.018109238
12	0xbe001ac5	-0.12510212
13	0x3e6ab6a9	0.22921242
14	0x3cf4178b	0.029796382
15	0x3d9c636f	0.07636153
16	0xbd079b66	-0.033107184
17	0x3eb314d3	0.34976825
18	0x3e70bc64	0.23509365
19	0xbdfc8984	-0.123309165
20	0xbdaa097d	-0.08302591
21	0xbd75504e	-0.059891038
22	0x3cb00079	0.0214846
23	0x3e1b808a	0.15185753
24	0xbdc97c15	-0.0983812
25	0xbd92c94a	-0.07167299
26	0xbd1184ab	-0.035526913
27	0xbceb2824	-0.028705664
28	0xbde0c37b	-0.10974785
29	0xbd2aa72e	-0.04166334
30	0xbc58cf07	-0.013232953
31	0x3d850581	0.064951904
32	0x3d2a7d19	0.04162321
33	0x3ad49900	0.0016219914
34	0xbdea3357	-0.114355735
35	0xbddd1a0c	-0.10795984
36	0xbd2a18d6	-0.04152759
37	0xbe316739	-0.17324533
38	0xbd927059	-0.07150335
39	0x3e22b735	0.158902
40	0x3e01ef34	0.12688905
41	0xbd4f3770	-0.05058998
42	0xbcab354e	-0.020899441
43	0xbe151147	-0.14557372
44	0x3bf54552	0.0074850703
45	0x3d105b1a	0.03524313
46	0xbd350ce0	-0.04420173
47	0xbc949d22	-0.018141333
48	0xbcf49173	-0.029854512
49	0xbd2b2069	-0.041778956
50	0x3e254224	0.16138512
51	0x3e84fc07	0.25973532
52	0x3c8bc6b8	0.01706253
53	0xbdd0a4c4	-0.101876765
54	0xbdc521eb	-0.0962561
55	0xbcfd3942	-0.030911092
56	0x3dd37375	0.10324756
57	0xbcbdcb9f	-0.023168383
58	0xbd660cdb	-0.056164604
59	0x3d6fc165	0.058534045
60	0xbe1c2f5c	-0.15252441
61	0xbda179db	-0.0788457
62	0xbdf47cbe	-0.11937855
63	0x3e0677f4	0.13131696
64	0xbd949e55	-0.07256762
65	0xbcb07f0b	-0.021544954
66	0xbdd36b73	-0.10323229
67	0xbd34d61c	-0.044149503
68	0x3da58859	0.08082647
69	0x3de1590d	0.11003313
70	0x3da5311e	0.08066009
71	0xbbd3025e	-0.006439491
72	0x3e38553a	0.18001261
73	0xbd57c3d3	-0.052676987
74	0x3b86c292	0.00411255
75	0x3db09ba5	0.08623437
76	0xbd17ea3a	-0.03708861
77	0xbc793c6e	-0.0152121615
78	0xbbf67ab6	-0.0075219525
79	0x3d870571	0.06592835
80	0xbd657358	-0.056018203
81	0x3d10af39	0.035323355
82	0x3e72dddb	0.23717444
83	0xbd16cd58	-0.036816925
84	0x3ce918eb	0.028454265
85	0x3e716f2c	0.23577565
86	0x3e157187	0.14594088
87	0xbd1fa5ca	-0.03897647
88	0x3d8a026e	0.06738745
89	0xbce20cab	-0.027593931
90	0xbd10e3a0	-0.03537333
91	0xbc61fe75	-0.013793577
92	0xbe2819fa	-0.1641616
93	0x3e03f23f	0.12885378
94	0xbd9b05d1	-0.07569469
95	0x3d99152f	0.074747436
96	0xbdbf3ed5	-0.09338156
97	0x3d3f48d4	0.046700314
98	0xbc83940b	-0.016061803
99	0x3dac094f	0.08400213
100	0x3cf7be54	0.030242123
101	0x3d664ec8	0.056227475
102	0x3d582fc1	0.052779917
103	0xbde02f7d	-0.10946558
104	0xbdb04e51	-0.08608688
105	0x3d2f18d7	0.0427483
106	0xbc701622	-0.014653714
107	0x3d02a577	0.03189608
108	0xbd829820	-0.06376672
109	0xbda7692f	-0.08174359
110	0x3e0075a6	0.1254488
111	0xbd1e6478	-0.038670033
112	0xbe34a044	-0.17639261
113	0xbd8a9b69	-0.067679234
114	0x3e0bb86d	0.13644572
115	0xbd73143b	-0.059345465
116	0x3d318e1b	0.043348413
117	0xbc9e2686	-0.019305479
118	0x3d062415	0.032749254
119	0xbddfc5de	-0.10926412
120	0x3c2eb426	0.010663068
121	0xbde48b6b	-0.11159404
122	0xbcd1790c	-0.025570415
123	0xbe065228	-0.13117278
124	0xbc2d2bc5	-0.0105695175
125	0xbc9d9e7d	-0.019240612
126	0x3cef7ccc	0.029234312
127	0x3dd8701e	0.1056826
128	0xbd764539	-0.06012461
129	0xbdb8a685	-0.09016136
130	0xbda7be7d	-0.0819063
131	0xbd5b5689	-0.053549323
132	0x3c98f34a	0.018670697
133	0x3ccbaeae	0.024863567
134	0xbd5dddb8	-0.054166526
135	0x3e303738	0.17208564
136	0xbe0ca67c	-0.13735384
137	0x3c371347	0.01117403
138	0x3e5226a5	0.20522554
139	0xbe4b66f0	-0.19863486
140	0xbdad8747	-0.08473068
141	0x3d94ade2	0.07259728
142	0xbd8a4ebc	-0.06753299
143	0xbda5c4c3	-0.0809417
144	0x3d76839a	0.0601841
145	0xbd0e9269	-0.034807596
146	0xbda72c36	-0.081627294
147	0xbe2b1d19	-0.16710319
148	0xbd891d20	-0.06695008
149	0xbdedd242	-0.11612369
150	0x3cb57844	0.022152074
151	0x3da92d10	0.08260548
152	0x3da369a6	0.07979135
153	0x3cfffae5	0.031247566
154	0xbd70734c	-0.058703706
155	0xbddef6ec	-0.1088694
156	0xbd86ae92	-0.065762654
157	0xbd03b464	-0.032154456
158	0xbd9e89e3	-0.077411436
159	0xbdbc85a1	-0.09205175
160	0xba2f70ef	-0.00066925486
161	0x3b02cbc8	0.001995789
162	0xbc19683f	-0.009363233
163	0x3d45cb5d	0.048289645
164	0xbd3ee408	-0.046604186
165	0xbdd0dbe3	-0.1019819
166	0x3d8218bc	0.06352374
167	0xbc5f5d6d	-0.013633114
168	0x3dd712fd	0.105016686
169	0xbd091873	-0.033470582
170	0x3cbb536f	0.022866933
171	0x3c3ea4d0	0.011635974
172	0x3d9ac1a1	0.07556463
173	0x3d0acee4	0.033888713
174	0x3bf4e335	0.0074733743
175	0xbdb24306	-0.0870419
176	0xbdb2db5c	-0.08733246
177	0xbc316413	-0.010827082
178	0x3e31f85b	0.17379896
179	0x3cd643ee	0.026155438
180	0x3b8399c4	0.004016133
181	0x3d939c13	0.07207503
182	0xbe322adc	-0.17399162
183	0xbc2e7dd5	-0.010650118
184	0xbde8442f	-0.1134113
185	0xbde2d889	-0.11076457
186	0xbd5022cc	-0.050814435
187	0xbd793d9a	-0.060849763
188	0xbd1755f9	-0.036947224
189	0x3d9f29e8	0.07771665
190	0x3ca5c877	0.02023719
191	0xbd89a0cc	-0.06720123
192	0x3e56bb7d	0.20969959
193	0xbd362fe3	-0.044479262
194	0xbdd6ded6	-0.10491721
195	0xbcfce839	-0.030872451
196	0x3d747f28	0.05969158
197	0xbcf47f48	-0.029845849
198	0xbd4d1b1c	-0.05007468
199	0x3e0268d5	0.12735303
200	0xbb95f72e	-0.0045765853
201	0xbd43a257	-0.04776224
202	0x3cc736cb	0.02431812
203	0x3e755972	0.23959902
204	0xbcaede8c	-0.021346353
205	0x3d230fa4	0.039809838
206	0x3dbc9a72	0.092091456
207	0x3e4f5195	0.20245965
208	0xbd910531	-0.07081068
209	0x3e327b75	0.17429908
210	0x3da73eb8	0.081662595
211	0xbe187614	-0.14888793
212	0xbbf71234	-0.007540012
213	0xbdfb9c2e	-0.12285648
214	0x3d8e03e5	0.069343366
215	0xbc17ec2e	-0.009272618
216	0x3d8ab981	0.06773663
217	0xbe276a6d	-0.16349192
218	0x3ceb7e0d	0.02874663
219	0x3e8762cc	0.26442564
220	0xbd99d378	-0.075110376
221	0xbdcd203c	-0.10015914
222	0x3df4c50d	0.11951647
223	0x3e1f05e5	0.15529592
224	0xbd2a9253	-0.041643452
225	0xbd5978b8	-0.053093642
226	0xbd908773	-0.07057085
227	0xbd4562d9	-0.04818997
228	0x3d300425	0.042972703
229	0xbd6f5878	-0.05843398
230	0x3e34345d	0.175981
231	0x3e202cbf	0.1564207
232	0x3d2821b6	0.041047774
233	0x3dee95d2	0.1164967
234	0xbd45b565	-0.048268694
235	0xbdd5b313	-0.10434546
236	0xbd596c9e	-0.0530821
237	0xbdc5b790	-0.096541524
238	0xbdb02b6c	-0.08602032
239	0xbcda5ae0	-0.02665466
240	0xbd3538c1	-0.044243578
241	0xbe0ffafd	-0.14060588
242	0xbdbc353c	-0.09189841
243	0x3ded1a04	0.11577228
244	0xbe0961c8	-0.13416207
245	0xbc640298	-0.013916634
246	0x3e602e5a	0.21892682
247	0xbe36126c	-0.17780465
248	0x3c801029	0.015632706
249	0x3c1f5b06	0.0097262915
250	0x3cbe6af8	0.023244366
251	0xbd8fab02	-0.07015039
252	0xbe1ca1d7	-0.15296112
253	0xbd8f2262	-0.0698898
254	0xbdafe929	-0.08589394
255	0xbe1b633b	-0.15174572

4.bias f4 [6]
0	0xbe16b8d4	-0.14718944
1	0x3d157bf5	0.036495168
2	0xbd669513	-0.056294512
3	0xbbfcddbf	-0.007716864
4	0x3d30cffd	0.043167103
5	0x3d8b7aa8	0.06810504
