classifier.pt (torch_old, 577073 bytes, 6 tensors)

0.weight f4 [200, 512]
00000000: 3db3 9cbb 702d b83c 3d76 04bc c27e 023d
00000010: 2ce7 86bc 7605 dc3b b32d 373d 0a5d 883b
00000020: dc3d c63c 4399 b53c 11dc 1cbd 0dc8 993c
00000030: 371d ec3b 7c43 38ba da1c 723a 25ee d6bc
00000040: 731a 243d e196 153d fc1b a63b dac4 07bc
00000050: 8131 5e3b dc18 0fbd 8f59 25bd d05d c53c
00000060: 4a2e b63b c49e 8bbc 42c3 e8bc ee36 063d
00000070: 8bb5 093a 304f 0d3d 418e d5bc 55a1 103c
00000080: b0e8 0bbd da85 813c 12e8 e9bc 3f33 fabc
00000090: d68a 06bd 740e 1a3d 214c c83c 5219 a93c
000000a0: f995 48bc ccff 0e3d 6805 0abd 2c6d 2c3d
000000b0: 83f1 2ebd 4712 2b3d 89f0 29bd 63bf 27bd
000000c0: 71f2 653c 2dee 2abd c7df 03bc 990e d7bb
000000d0: a9a7 aeba df08 f73c ba75 9f3b 8d8d 07bd
000000e0: b4ca 7d3c e703 39bc f108 203c d704 91bc
000000f0: 26f1 23bd 65b7 2fbd b844 153d 1fb3 19bd
00000100: 4dec 19bd 9814 b13c 7a30 8abc d583 2cbc
00000110: ba1a 6dbc 237d 26bd 2d67 d93b cfb8 d5b7
00000120: f149 023c f13c bebc 19a5 8a3c 8a8d 0fbd
00000130: 7791 8abc f4ec 313d f1dd 57bc eaa5 053d
00000140: 78dd 103d 9a36 dbbc dd88 08bd 4d7b 5e3c
00000150: 64ce 023d a972 a13c 1214 8bbc 349f 6d3c
00000160: ace4 613b e8d6 a03c 1dd7 eebb e86b 2ebd
00000170: b776 ed3b 6952 d03c 6eba bf3c 34b7 d53c
00000180: 7e57 dc3c 3d05 febc e0d6 a73c 1335 bbbc
00000190: 4a5c c13c 62b4 d43c cd2f 04bd 825f 58bb
000001a0: 3daf 1bbd b25d 203d 0a71 273c f3f9 9e3c
000001b0: e303 00ba 8a0c 593b a58e 7f3c 6603 05bd
000001c0: beff 1b3d 4241 61bb 499b a83c b73a 0fbd
000001d0: 731f 263c dea5 da3c 5d98 213b 6c13 49bb
000001e0: 934b d33c 3892 97ba 8c5a 0a3d 0d55 40bc
000001f0: 5e0b 463c 9a68 06bd 5571 153d 97bb 79bc
00000200: 8d1b 9abc 1c7e c13c 6ae4 05bd 2b1f 36bd
00000210: 410a 973c b578 d2bc dc28 153d 9e5e c43c
00000220: 2ba8 b23c 3129 1ebd 9219 37bd 5021 c73c
00000230: 1080 f23c 8258 ddbc cf9d 103c 2858 03bc
00000240: ed99 21bd ea22 36bd 3518 153d ccaa 153d
00000250: ff42 f93c 8709 2d3d af2d a2bc edad 68bc
00000260: d691 16bc 050c 283d 8cbc c23a 400f 323c
00000270: e60e 203d e132 b33c 32eb b5bc faba 1e3d
00000280: c20a 0dbd f114 1c3d 8f77 babc c1ee a03b
00000290: 06b3 a63c 5a04 3c3c 8c36 88bb 3f85 ea3b
000002a0: 64ca 8ebc a6ea e3bb 669b 96bc 3106 13bd
000002b0: 7ab0 d8bc 4edd 27bd faf0 e63c f768 09bc
000002c0: 21d9 dfbc 8eea 0c3b c515 253d e26f d0bb
000002d0: 2aa2 adbc df9c a9bc 2014 7cbc db2b 5abc
000002e0: e208 003d 5b34 823b 001a fd3c d248 813b
000002f0: e31a 1e3d cf85 203d 2600 89bb 082e 343d
00000300: 0332 903c 3c31 1bbd eb48 68bc 8fcb 97bc
00000310: 0716 9dbc 9300 e63c 9d5b 2aba 35ee 06ba
00000320: 99f1 753c bd53 c83b 201a 053d c4ca cb3c
00000330: 37ed 963b 8e95 a43b b796 af3c 41e2 943b
00000340: ae5b 1b3b bf72 0dbd b2a6 b4b8 3b5d 83bc
00000350: e9aa a63c f41b 83bc 445c c43c 9ec5 853c
00000360: b515 33bd dc74 d9bc 0139 b63c 0850 afbb
00000370: 99fb cebb 0f43 943c 515b 68bc b058 1d3d
00000380: a557 033c 906a 38bc 0646 153d 3b2e d8bc
00000390: df96 2ebc 4f85 383d c6b9 313c 1bfe 8dbc
000003a0: 1059 bebc faa5 1abd 26cc 1439 17f7 33bc
000003b0: e1cb cabc b44e ca3a 177c d0bb 7819 14bd
000003c0: 5abd b73c 30d5 02bd 5908 a2bc 3915 c4bc
000003d0: 4ba2 10bd 1696 23bd 7280 8f3c ff01 093d
000003e0: a676 85bb ec9e ffbc 2014 8fbc a780 aa3c
000003f0: 1a60 7f3b 1bb3 12bd 3f13 9d3c c559 9c3c
-0.004782109 0.022482604 -0.008084831 0.031859167 -0.016467653 0.006714518 0.044721317 0.0041614817
0.024199419 0.022167807 -0.03829581 0.01877215 0.007205631 -0.0007029099 0.00092358666 -0.026236603
0.040064286 0.036520842 0.005069254 -0.008286679 0.0033904018 -0.034935817 -0.040368613 0.024092585
0.0055597173 -0.017043479 -0.028413419 0.03276723 0.0005253187 0.034499347 -0.026068809 0.008827527
-0.034157455 0.015810896 -0.028553043 -0.030542014 -0.032847248 0.03761144 0.024450364 0.020641956
-0.0122427875 0.034911916 -0.033696562 0.042096302 -0.042710792 0.041765478 -0.041489158 -0.040954005
0.014034853 -0.04173105 -0.008048958 -0.0065630195 -0.0013325113 0.030155597 0.004866329 -0.033093978
0.015490223 -0.011292434 0.009767757 -0.017702503 -0.0400249 -0.042899508 0.03644249 -0.03752434
-0.03757887 0.021616265 -0.016868819 -0.010529478 -0.014471704 -0.040646683 0.006634614 -2.5477637e-05
0.007952199 -0.023222419 0.016924428 -0.03504709 -0.016915066 0.043438867 -0.013175474 0.03262893
0.03536746 -0.026759434 -0.033333648 0.013579202 0.03193511 0.019707995 -0.016977344 0.014503289
0.0034468574 0.019633725 -0.007288827 -0.042583376 0.007246818 0.025429921 0.023404326 0.026088335
0.026897188 -0.031008357 0.020488203 -0.022852456 0.023603577 0.02596492 -0.03227215 -0.0033015911
-0.038008917 0.039151855 0.010219822 0.019406294 -0.00048833917 0.0033119046 0.015597974 -0.032473944
0.03808569 -0.0034371172 0.020581858 -0.034968104 0.010139334 0.02669042 0.0024657466 -0.0030681742
0.025792873 -0.0011563962 0.03377776 -0.011739028 0.012087671 -0.0328146 0.036485035 -0.015242479
-0.018811965 0.023619704 -0.032688536 -0.044463318 0.018437507 -0.025692323 0.03641592 0.023970898
0.021808704 -0.038613502 -0.04470212 0.024307877 0.02960208 -0.027019743 0.008826687 -0.008016624
-0.039453436 -0.04446689 0.03640004 0.036539838 0.030427454 0.042245414 -0.019797174 -0.014201623
-0.009190043 0.041027088 0.0014857217 0.010867894 0.03907671 0.021874847 -0.022206876 0.038752533
-0.034434088 0.03810591 -0.022762088 0.004911274 0.020349037 0.011475647 -0.004156893 0.0071569975
-0.017430492 -0.0069554625 -0.018384647 -0.035894576 -0.026451338 -0.040982537 0.028191078 -0.008386842
-0.027325215 0.002150211 0.040303964 -0.0063609937 -0.02119549 -0.020704685 -0.015385658 -0.01331612
0.03125847 0.0039735264 0.030896187 0.0039454484 0.03859986 0.03919011 -0.004180926 0.04398921
0.017601972 -0.03788875 -0.014177541 -0.018529681 -0.019175543 0.028076446 -0.0006498637 -0.000514719
0.015011215 0.006113498 0.032495618 0.02487696 0.004605915 0.005022711 0.021434171 0.004543573
0.0023705768 -0.03453326 -8.614118e-05 -0.016035667 0.020345168 -0.01600454 0.023969777 0.016329583
-0.043721873 -0.02654498 0.022243978 -0.0053501166 -0.006316614 0.018098382 -0.014181928 0.038414657
0.008016502 -0.011255875 0.036443733 -0.026389232 -0.010656088 0.045049008 0.0108475145 -0.017333081
-0.023235828 -0.037755944 0.00014190431 -0.010984204 -0.02475542 0.0015434832 -0.006362449 -0.0361571
0.022429157 -0.031941593 -0.019779371 -0.023935901 -0.035311025 -0.039938055 0.017517302 0.03344917
-0.004072982 -0.03120371 -0.017465651 0.0208133 0.0038967193 -0.03581534 0.019174216 0.019085774

0.bias f4 [200]
00000000: e0a1 d0bc b522 3b3c a713 a6bb b466 c2bc
00000010: 6757 543c 7198 10bb f900 cc3c cb06 2d3d
00000020: d54e a33c 99bd 5fbc 65f0 08bd 14e6 e63a
00000030: dc80 133d c08d abbc fbfc c1bc 5840 ec3c
00000040: c168 e33c 7321 a1bc d5ac ceb9 8c0e dbbb
00000050: bc28 193d 4907 d9bc 4dec 27bd deae 6f3c
00000060: dad3 1cbc d4e4 4aba c4cf c93c 3d1c bcb9
00000070: 8e5e 03bd 9858 e4bc 2ee9 073b 280c cc3c
00000080: 6086 903c 8c32 da3c e379 233c 964d f23c
00000090: 02e0 883b e6b9 a63c 2c8c 383d 31de 24bd
000000a0: 1470 28bd e79c cf3c 0749 1b3d 6b0d 963c
000000b0: 14cb 163d 4f52 01bc ffef 3ebc 6f34 833b
000000c0: 3a89 1a3d a4b6 1c3d ad82 9e3c 6d52 083d
000000d0: 6130 3cbc 1fbb 1c3d 8429 bfbc 242e cdbc
000000e0: 4a48 d3bc 5778 ff3c fb3b b93b b333 35bd
000000f0: c9e4 cb3c efe6 cfbb 48e5 013d 0743 9abc
00000100: 9ffa c53c a372 103d f141 9fbb ffde a5bc
00000110: 10f8 583c 9725 1ebd a62b d4bc d4e5 563b
00000120: e985 43bc 9f96 1c3d afa8 86bb fc36 83bc
00000130: e725 343d d5cb 3b3c 4c78 99bb f780 193d
00000140: d2fc 05bd 3b3e 023d c704 4a3c 639e 23bd
00000150: a1d0 45bc 4ecd e5bc 48d6 5d3c 85c9 debc
00000160: b8d2 b33c d4ec b3ba 7892 02bc 6ee9 f23b
00000170: c39e a3bc cab1 a23b bfc2 013d 98a8 12bd
00000180: 5885 c63c 9927 e33c 9acf 8dbb ebb2 143c
00000190: 5248 c33c 3615 283d 8d97 dc3c 9959 9b3c
000001a0: b22e 323d c0da dfba b21f 31bd c930 9a3c
000001b0: 9b4d a6bc ea43 c93b c975 c939 1c58 babc
000001c0: 9d70 e93c 65f7 97bc cba1 ac3c 6490 333d
000001d0: 2012 923c c65b 67bc 4349 29bd 8e73 c8bc
000001e0: 95cd 19bd 5b0d 103d 1795 c63c 5d6d 87bc
000001f0: 4331 1a3d 50ae 703c 0e7d 823c a77d 0cbd
00000200: 86b4 413d ca00 4b3b c482 acbc 3dff 6c3c
00000210: 1c4d c23c 7245 d73c 1286 493c 379d de3c
00000220: 2e54 bb3b bc27 003d 5f60 55bc 5669 08bd
00000230: 5b70 e9bc 4021 f2bc cb4d 943c be4b b5ba
00000240: cd41 1e3d 83b8 9d3b 2927 2c3d d584 993c
00000250: 667c 923c 14a1 eabc 8cc1 1c3c 4809 aabb
00000260: ae29 d7bc abcf 9bbc 4579 0a3d 159b fe3c
00000270: dbd2 463d 2f37 d4bb 1259 fdbc 5555 4f3d
00000280: aa70 153c 75a5 a73b 44d8 27bd f731 02bc
00000290: 9950 79bb c449 afba b49a 253c 930d be3c
000002a0: f3c8 cdbc 82e1 e5bc 110a ff3b 9659 8b3c
000002b0: 9837 a63b b8c0 d3bb cc7d c4bc 30dc 4e3c
000002c0: ea52 173d 7a23 f33c bf29 e9ba 3cb0 12bb
000002d0: 166c 783b 99d4 0c3c 9dbd 173d 3e60 173d
000002e0: bd53 173d f05f fabb 5fd9 50bb ff38 083d
000002f0: 9cea 573c c7cf 1d3c d448 223d 992f 64bc
00000300: 17c4 69bc cf0c 103d dfd2 363c f03c 243d
00000310: 5795 c33c 9a6e 223d c3fd cb3c f475 9f3c
-0.025467813 0.011421849 -0.0050682607 -0.023730613 0.0129602915 -0.0022063518 0.024902808 0.042242806
0.019935051 -0.013656043 -0.033432383 0.0017616176 0.03601156 -0.020941615 -0.0236802 0.028839275
0.027759911 -0.01966927 -0.00039420152 -0.0066850837 0.037392363 -0.026492732 -0.04099684 0.014629094
-0.009571994 -0.00077397865 0.024635203 -0.00035879193 -0.032072596 -0.027874276 0.002073835 0.02490814
0.0176422 0.02663543 0.0099777905 0.029578011 0.0041770944 0.020352315 0.045055553 -0.04025096
-0.04112251 0.025343372 0.03791144 0.018316945 0.036814764 -0.007893159 -0.011653899 0.0040040533
0.037728526 0.038260117 0.01934942 0.033281732 -0.011486144 0.03826439 -0.023335226 -0.025046416
-0.025791306 0.031185312 0.005652902 -0.044238757 0.024889367 -0.006344668 0.0317128 -0.01883079
0.024167357 0.035265576 -0.0048601558 -0.020247934 0.013242736 -0.038610067 -0.02589972 0.0032790797
-0.011933782 0.03822958 -0.004109464 -0.01601743 0.04398146 0.011462172 -0.00468353 0.037476506
-0.03271181 0.03179763 0.012330241 -0.03994597 -0.012073667 -0.028051998 0.013539858 -0.027195701
0.021951064 -0.0013727196 -0.007969491 0.007413081 -0.019973164 0.0049650418 0.031679865 -0.035805315
0.024233505 0.027728843 -0.0043277266 0.0090758605 0.023838196 0.041035853 0.026927734 0.018963622
0.043501563 -0.0017078742 -0.043243118 0.01882209 -0.020300677 0.006142129 0.00038425464 -0.022747092
0.028496081 -0.018550584 0.021073243 0.043838874 0.017830908 -0.014121002 -0.041329633 -0.024469163
-0.037549574 0.035168987 0.024241013 -0.01653164 0.037644636 0.014689997 0.015928771 -0.03429952
0.0472913 0.0030975812 -0.021058448 0.01446515 0.02371841 0.026278231 0.012300031 0.027174575
0.005716822 0.031287894 -0.013023465 -0.03330358 -0.028495958 -0.02955687 0.0181035 -0.0013831777
0.03863697 0.0048132553 0.042029534 0.018740097 0.017881583 -0.028641261 0.00956763 -0.0051890947
-0.026264992 -0.019019922 0.033807058 0.031079808 0.04854093 -0.006476305 -0.030926261 0.05061849
0.0091210995 0.0051161596 -0.04097773 -0.007946483 -0.0038042425 -0.0013373424 0.010107685 0.023199832
-0.025120234 -0.028061632 0.0077831824 0.017010491 0.0050725453 -0.006462183 -0.023985766 0.012625739
0.036944307 0.029680002 -0.001778893 -0.0022382876 0.003790622 0.008595609 0.037046064 0.036957018
0.036945093 -0.007640831 -0.0031867845 0.03325748 0.013178494 0.0096320575 0.039620236 -0.013927364
-0.014267943 0.035168465 0.011158674 0.040097177 0.023874922 0.03965626 0.024901276 0.019465424

2.weight f4 [200, 200]
00000000: 0eb7 d6bc efc6 853d 3390 b7bc 261e be3b
00000010: d183 c03c bd8c e8bc 5738 1fbd 0e38 6fbd
00000020: 73fa 813d 4595 5cbd c53c bb3b 84bd 5abd
00000030: 3913 35bc fb2d a43c f9c5 623d 57bf b2bc
00000040: cd2f ab3b 92f1 06bd aa6e 7ebd ef04 143d
00000050: 5cf5 613d ba09 76bc f8e2 56bd 8747 423d
00000060: 6b63 7dbd 0070 323d 5470 4bbd 6ece 2cbb
00000070: 95ff 6c3d b3ab 10bd 7baf 2ebb 4a98 4bbd
00000080: 85d7 253c a901 c1bc de31 ffba a628 4d3d
00000090: b594 993c 2c48 c33c aa37 07bd 92c1 f53c
000000a0: f377 81bd 9278 8e3b ba25 6a3d ccc7 50bc
000000b0: 0f5e 7bbd 94d2 8c3d dc34 76bd 717a 813d
000000c0: 2b4a 893d f71d 5abd b36b 343b e568 5ebd
000000d0: 3b14 27bd 5440 8bbc 6b70 923c cfd9 e43b
000000e0: aa31 1a3d 1bb0 613d 738a 92bd 576b 8dbc
000000f0: c840 8d3d b6e8 463c 9758 52bd 4a93 a4bc
00000100: f79b 98ba 805d 6a3b 6680 45bc 86bd ff3c
00000110: 496f 613d ff95 8b3d b0f7 f03c e50f 8ebd
00000120: 811a 24bc 883d 823d 872d 6ab9 9a42 a93c
00000130: 083a 14bd 14bf 593d ef91 eabb f891 5b3d
00000140: 7da9 433d 3e74 043d 2682 7cbd 4fc3 87bd
00000150: 4cc2 23bd 2648 36bd d35a 58bd f30b 85bc
00000160: 253c 543d 94d7 0d3d d0f3 ce3b e4db 923b
00000170: fce8 f6bc 563f 5f3d 587d 37bd 7549 893d
00000180: cd84 a03b 1623 a33c 35a0 b23c 3815 56bc
00000190: 3358 85bd b1e1 743d f334 71bd 4db0 9c3a
000001a0: 0218 053d d9fd bbbb da53 943c 6397 e6bc
000001b0: 84d9 7c3d 074c 7c3d 62ba be3c 6cc2 043d
000001c0: 4f62 44bc 639b a6bc 87f1 9fbc 68e6 db3c
000001d0: 0b3d 9fbc 4c16 413d 1871 603d 28f0 4a3d
000001e0: 7852 04bc 87f0 b73a 99f2 e9bc a3e5 02bd
000001f0: 1f7b 883d d7bb 343c b1f3 693d a86a eebc
00000200: 1666 31bd a217 f03c 7200 7c3d 070d e93c
00000210: 564e 3fbd 8031 5a3b 71a7 3bbd c047 b13c
00000220: c4fe f43c 6f57 093d eb4a 643d c896 73bc
00000230: 9855 25bd 9933 e0bc 2cfa 0fbd 9eb5 50bc
00000240: 9ac7 0fbc 2c08 233d 9f65 513c 3db1 3ebd
00000250: 2603 853d 3308 90bd 5a5d bdbb 2233 2abd
00000260: d530 2d3d 347f 233c 0367 1a3b 2e2f 9a3c
00000270: 9b02 0c3d 5352 5c3d bd11 8cbd 8d69 d93c
00000280: 055b cbbc 7c1e 853d 31e3 7e3d 7dab f3bb
00000290: dcdc fe3c 3efc 5abd 9db6 c1bc 189e 46bd
000002a0: a106 64bd 8883 553c ff51 8d3b 69b3 e7bb
000002b0: 444e 51bd 1bd2 09bb 86aa 7c3c e238 ffbc
000002c0: 3565 8abd 2f5e 543d a81d d93b 2546 ef3c
000002d0: 42c6 adbc e7c2 473d 2737 353d c530 bdbc
000002e0: c785 753d ba18 5e3c 59bb 00bd f486 0bbc
000002f0: bef7 0fbd 7975 5f3d 41f1 443d 8b81 65bd
00000300: c70f a73b 39ad 6d3d a309 2c3d e8f6 6dbc
00000310: 1c0e 263c 7314 b8bc 7a53 5d3d cee5 773d
00000320: 54de 3fbd 7bc8 c3bc bc09 983d 9356 553d
00000330: d48f 16bd a48b 183d 3cef 55bc 1433 943d
00000340: c546 093d f568 de3c 13d3 fa3c fca0 313b
00000350: 208f 803c 3e26 d53c 7e9e f3ba 4453 cabc
00000360: 7386 123d 038d 60bd 2e10 953d 2cfd 1b3d
00000370: 30f4 a9bb 9e64 d5bc 938b 4b3d 0be1 a8ba
00000380: 1caa 593d eb30 963d f841 73bd 2dac 12bd
00000390: 67b0 82bd 9870 cd3b 6e1a 203d e428 eebc
000003a0: bad6 b03c 23c6 87bd d5ae 5a3d 8de7 703d
000003b0: baee 09bd 9fc6 81bd 8cf6 243d 3ef0 87bd
000003c0: c2df 2fbd 15f5 d5ba 1b18 0d3a e9fc b43c
000003d0: 500d 1abd ffde 573d d0ae 1b3d 67b8 9dbc
000003e0: 7550 d639 8bf2 89bb 0f97 983d a3c0 523d
000003f0: 9624 323d 5077 d8bc 0096 18bd ba7c 2e3d
-0.026210334 0.06532084 -0.022407627 0.005801934 0.023500355 -0.028387422 -0.03887209 -0.058403067
0.063465975 -0.053853292 0.0057140314 -0.053403392 -0.011051946 0.020041456 0.055364583 -0.021819754
0.005224204 -0.032945223 -0.062117256 0.036137518 0.055165634 -0.015016967 -0.052462548 0.047431495
-0.06186239 0.043563843 -0.04966767 -0.002636816 0.05786093 -0.035319995 -0.0026654887 -0.04970578
0.010122185 -0.023560362 -0.0019469818 0.050087593 0.018747667 0.023838125 -0.03301207 0.029999528
-0.063217066 0.004347869 0.057164885 -0.012742948 -0.061369 0.06876102 -0.060109004 0.06322182
0.067035995 -0.053251233 0.0027530014 -0.054299254 -0.040790778 -0.016998447 0.01787587 0.0069839726
0.03764502 0.055099588 -0.07155313 -0.017263098 0.06897122 0.012140444 -0.051354017 -0.020089764
-0.0011643161 0.0035761297 -0.012054538 0.031218302 0.05503777 0.06815719 0.029414982 -0.069366254
-0.010016085 0.063593924 -0.00022332939 0.02066164 -0.036188155 0.053160742 -0.00715851 0.053606004
0.04776906 0.03233742 -0.061647557 -0.06629049 -0.039980218 -0.0445024 -0.05282099 -0.01624105
0.05181517 0.03462942 0.006315686 0.0044817794 -0.030140392 0.05450376 -0.04479727 0.06703464
0.0048986436 0.019914191 0.021804908 -0.013066582 -0.06510963 0.05978555 -0.058888387 0.0011954397
0.0324936 -0.005737048 0.01810639 -0.028148359 0.061730877 0.061595943 0.023282234 0.032411978
-0.011986329 -0.020337766 -0.019524349 0.026843265 -0.019438287 0.047140405 0.054795355 0.049545437
-0.008076303 0.0014033475 -0.028558062 -0.03195728 0.066641085 0.011031113 0.057117168 -0.029103592
-0.043310247 0.029308144 0.061523862 0.028448595 -0.046705566 0.0033293664 -0.04581398 0.021640658
0.029906638 0.03353065 0.05573551 -0.014867492 -0.04036483 -0.027368354 -0.035150692 -0.012738613
-0.008775616 0.039802715 0.012780576 -0.046555746 0.06494741 -0.07032814 -0.0057789506 -0.04155267
0.042282898 0.009979058 0.0023559935 0.018821325 0.034182172 0.053789448 -0.06839321 0.026539588
-0.024823675 0.06499955 0.062228385 -0.0074362145 0.031111173 -0.053463213 -0.023646647 -0.048490614
-0.055670384 0.013031848 0.004312753 -0.007070948 -0.05110003 -0.0021029774 0.015421515 -0.031155054
-0.06757585 0.051847633 0.0066258498 0.029208252 -0.0212127 0.048769858 0.04424205 -0.023094544
0.059942033 0.0135557 -0.03142867 -0.008516062 -0.035148375 0.05455539 0.04808164 -0.056031745
0.0050983164 0.058026526 0.042001378 -0.014524199 0.0101352 -0.022470688 0.054034688 0.060521893
-0.046842888 -0.023899307 0.07423732 0.052084517 -0.03675826 0.037242547 -0.013057526 0.07236305
0.033514757 0.027149657 0.030618226 0.002710401 0.015693247 0.026019212 -0.0018586663 -0.024697907
0.035772752 -0.05482198 0.07278477 0.03808324 -0.00518658 -0.026048955 0.049693655 -0.0012884451
0.053140745 0.07333549 -0.059389085 -0.03580873 -0.06381302 0.0062695257 0.039087705 -0.029072233
0.021586765 -0.066295885 0.05338939 0.058814574 -0.033674933 -0.06336712 0.040274188 -0.066376194
-0.042938 -0.001632365 0.0005382315 0.022093253 -0.037610352 0.0527029 0.03800851 -0.019252969
0.00040877206 -0.0042098216 0.07450687 0.051453244 0.043491922 -0.02642408 -0.037252426 0.042599417

2.bias f4 [200]
00000000: 128e 803c 8fbd f83c 350b 5fbd 9e78 79bd
00000010: 4ded 24bd 7db0 9b3c 726a 8a3d 2868 52bc
00000020: c10c 383c 8dc1 d03c 9795 653d 02bd 773c
00000030: 7295 61bd d59e abbb 7205 fa3c 3ca8 403c
00000040: 8c4e 373d 44e2 2d3d a9be 8bbd 9edd 22bd
00000050: f53f 98bc 7442 9dba 16f0 6cbd 7950 1ebd
00000060: 05ce 433d e833 8a3c ac03 a9bb e6b7 09bd
00000070: fb4e ab3c 3471 81bd 82b5 9ebc 79ac 99bd
00000080: 3461 5b3d eb33 2ebc 93d2 443d 3fef 58bc
00000090: 58b5 eabc b1cc 0fbd 80ef 2e3b 520f 823c
000000a0: 51a5 133d b481 343d 72b1 943d 37e5 00bc
000000b0: 7465 78bd 4cfe a13d 242b 74bd 23e7 0cbd
000000c0: e450 e1bc 10a1 caba 4069 11bd 4eb2 bd3c
000000d0: cf49 0dbd f71c 643d 5fc5 82bd 48dd 4c3d
000000e0: 2d48 723d 9158 00bd c5a1 11bc 50c5 4d3d
000000f0: f8b9 82bd b826 a13d c9be 033c 30fd 823d
00000100: 4959 67bd aabe 7fbc 99c9 b73c a8be ed3c
00000110: f5eb 53bd 16de 39bc 7f97 8a3d 3c0f dbbc
00000120: c6e2 fabc 6867 5d3d 378a 41bb de99 483d
00000130: a435 92bd 25df 33bd dd95 5a3d dcc8 2b3d
00000140: a7d9 27bd 69ef cb3c db35 11bd 8d51 f03b
00000150: 9581 37bc 02d8 94bc 0bff b7bb 048e 46bd
00000160: 59f7 c4bc 8b8e 923d 6a2b 613d fea5 b03d
00000170: 4a79 b33c 7f39 883d 6c9a 13bd 59ba 8d3d
00000180: e03e 8fbc 6cc0 713d 0ba5 223d 182d a33c
00000190: 5caf 503d e495 953c 9c71 44bd f684 0a3c
000001a0: 1a21 f43a dd30 2e3d cb37 113d e4ca c03c
000001b0: ad39 af3d 20d0 2c3d 1c84 cdbc 3e25 d4bc
000001c0: d70d 34bd 0221 3fbc 5f14 38bd 9b90 333d
000001d0: d9b4 45bd f92a 31bd ff03 e53c 5a32 44bd
000001e0: 3949 2fbd dc0e 933d 0f20 52bd 6c55 11bd
000001f0: c9fb 7d3d 6803 73bd 0f24 133d 241d 4fbd
00000200: 98db b9bc 90ac b3bb e6d6 103d e777 49bd
00000210: b13b 87bd 5d7f a1bc 00c6 35ba 32ce 673d
00000220: fdc6 d4bc fb48 57bd ccb1 303d 19d5 7cbd
00000230: dcc7 7dbd 319e b3bc d727 7dbc 32f5 273d
00000240: 2d06 653d 8824 9dbb 104f 84bd c2e0 223d
00000250: a591 a3ba 9ace 5f3d 47ca 3fbd 8b18 33bc
00000260: 9c14 2d3d 6152 f73c fb9d 0ebd c9ec 78bc
00000270: 63a3 5dbd 84d5 28bc f0ac d23c 5baf 1f3d
00000280: c391 90bd 211d a6bc f3f7 debb 271e 7cbd
00000290: 8934 e73c fde9 023d ad18 283c dcf9 a93d
000002a0: 9b1f 313d 9df4 92bd 7ffa 1ebd d2fe a4bb
000002b0: 4cea d3bc 8e9a d43c d1d4 0f3d 3ec1 253d
000002c0: d6c1 0abd 08e0 d63c 2ce8 ba3c 8a3a 0fbc
000002d0: 5908 743c f9b2 22bb 56b0 813c a782 903d
000002e0: c494 0f3d 4809 733d 7aeb 403d 3650 0f3d
000002f0: fee1 443d a6ba 483d 0cde 273d 66b9 7fbc
00000300: 9b89 b73a 3f33 feba c73f 59bd cafa 2cbd
00000310: ce7e 1abd edf8 523d 50e7 193d 165b 303d
0.015692744 0.030363826 -0.054454047 -0.060906045 -0.04026537 0.019005055 0.06758584 -0.012842216
0.0112335095 0.025482917 0.056050863 0.015120747 -0.055074163 -0.00523744 0.030520175 0.01175886
0.044752643 0.04245211 -0.06823475 -0.039762132 -0.018585185 -0.0011997954 -0.05784615 -0.038650963
0.047803897 0.016870454 -0.0051579084 -0.033622645 0.020911684 -0.0632042 -0.019373659 -0.075036
0.053559497 -0.010632495 0.04805238 -0.013240634 -0.028650925 -0.03510732 0.0026693046 0.015876446
0.03604633 0.044069007 0.072604075 -0.007867149 -0.06064363 0.079098314 -0.059611455 -0.034400117
-0.027504392 -0.0015459377 -0.035500765 0.023156311 -0.034494217 0.055691686 -0.06385302 0.050015718
0.059150863 -0.031334464 -0.0088886665 0.050237 -0.06383127 0.07868713 0.008041092 0.06395948
-0.056481633 -0.015609423 0.022434996 0.029021576 -0.051738698 -0.011344453 0.06767177 -0.026740663
-0.030625712 0.054053694 -0.0029531845 0.048974864 -0.071391374 -0.04391398 0.053365577 0.0419396
-0.040979054 0.024894433 -0.03545175 0.0073339404 -0.011200328 -0.018169407 -0.0056151203 -0.04847528
-0.024043726 0.07156094 0.054973044 0.086254105 0.021908421 0.066515915 -0.03603594 0.069203086
-0.017486036 0.0590214 0.03970818 0.019918963 0.050948486 0.01825995 -0.04795991 0.008454552
0.0018625588 0.04252707 0.0354536 0.023534246 0.08555923 0.04219067 -0.025087409 -0.025896665
-0.04395851 -0.0116655845 -0.044941302 0.04383908 -0.048268173 -0.043253873 0.027956007 -0.04789958
-0.04279444 0.071805686 -0.051300105 -0.035481855 0.0620077 -0.05932942 0.03592306 -0.0505649
-0.022687718 -0.0054832175 0.035361193 -0.049186613 -0.06603182 -0.019714052 -0.00069341063 0.056593128
-0.025973791 -0.052559834 0.04313831 -0.061726663 -0.06195818 -0.021926017 -0.015451393 0.04100532
0.055914093 -0.0047956146 -0.064603925 0.039765127 -0.0012479319 0.05464039 -0.046823766 -0.0109311445
0.042255983 0.030190649 -0.03481863 -0.015193173 -0.054110896 -0.010304812 0.025717229 0.03898559
-0.07059052 -0.020277562 -0.00680446 -0.061552193 0.028223293 0.03196143 0.010259789 0.0829961
0.043243032 -0.071755625 -0.03881311 -0.0050352598 -0.025868557 0.025952604 0.035115067 0.040467493
-0.033876263 0.026229873 0.022815786 -0.008741984 0.014894568 -0.0024825914 0.015831154 0.0705617
0.035053983 0.059335023 0.047099568 0.034988604 0.048067085 0.049006127 0.040983245 -0.015608167
0.0014002802 -0.0019393935 -0.05303934 -0.04223136 -0.037718587 0.051506925 0.037574112 0.043055616

4.weight f4 [6, 200]
00000000: 584a 3f3c 44b7 adbb 29a6 5fbd 5cb2 65bd
00000010: 81ef cd3d 7f62 373c a6df 803d d4e4 66bd
00000020: ba92 8ebd a8d3 eb3d c544 50bd b208 313d
00000030: 8ce7 38bd 14af 3f3d 655f 2fbd bbe0 ca3b
00000040: 98d8 d2bc 7ff5 81bd a6a7 233d a0c9 d83b
00000050: 805f 863d 3e8c 7fbd 5c36 733d 8fa4 f9bc
00000060: 9e9e 75bd 8c0e 92bc 0194 44bd 7c08 0bbd
00000070: 75b9 09bb 50bf 17bd cc0e bbbd e414 cdbb
00000080: 0a0c 083e 8648 67bd 37ea d63d 3071 193e
00000090: 8ed7 193d b0b0 4f3d 3dd6 843d 4a1a b83d
000000a0: 332c a1bb 1056 253c e22e 86bd ddc4 9e3b
000000b0: 977d 923d 8425 be3d e778 02bc bf6e 9e3d
000000c0: 151e 863d b598 073c d77b a3bb ccad 993d
000000d0: 7c5c 76bd 41b3 7639 6ab7 81bc faaa 2d3d
000000e0: 8087 4c3d c761 8a3d f44f 123e 4e4a 72bd
000000f0: c813 dc3b 59b5 083e 9f35 e03d 2b57 0b3d
00000100: aa09 943b a272 743c 7a04 943d b92a 613b
00000110: e93d 83bd 8ab0 45bd 3681 95bc 4ddf 1dbb
00000120: 2ede 943c 06db 8d3d 902e 7f3d df5b 4abd
00000130: 8c56 69bd 1940 c8bd 2966 003d 9195 8c3d
00000140: 4331 6b3c a019 19bd e9d0 783d e947 3b3d
00000150: 9d00 9a3d 407e 8f3d ba79 7ebc f99c 0e3e
00000160: 7d87 87bc d0fb d73d e31c 453a 1db7 273b
00000170: d7bb 49bc 36ae 073d d80b 22bd e368 46bd
00000180: a8a8 143d 8966 2abd 850e 7c3d dbfa fc3d
00000190: cd16 9d3c 7630 913d 694e 6a3b 5c29 a13c
000001a0: c776 29bd 4db8 81bd e22c a2bb 5c49 98bc
000001b0: 0eb6 a83d 8f23 da3c 3ade 07bd 1f15 ec3d
000001c0: da57 763d 3767 813d 6b5c 30bd 45c4 d63c
000001d0: 4ac9 203d f155 a0bd 4cdb bbbb 4a9b 19bd
000001e0: 8807 a63b da5c a73d a80e 7f3d f71d 6ebd
000001f0: 461f c53c d0d0 943d 9e95 ac3d daa7 a1bc
00000200: 030c 88bc 7ae0 253d 0579 4ebd d495 1abc
00000210: f0ed 733d 62a7 603d 2594 3dbd 5c83 b13d
00000220: 8cda a5bc 3752 993c 1e86 bebd b7d2 a0bd
00000230: c97e a03d b94c 6b3d 9408 3a3e e75b 183c
00000240: 2d10 adbc ed46 aa3c fd6a 123d 3da0 6d3d
00000250: d6d6 4d3c bac5 483d 0fac 26bd dbc8 093d
00000260: 3421 673d ff5f 30bc 1456 133d b190 633d
00000270: 3308 2a3d 1a5a 4bbc 9c44 bebb 19a1 943d
00000280: 3a05 5bbd 0d4a 56bd c6fd 873c 7a69 113c
00000290: 3e39 693d e045 bfbc eea3 33bd 44af adbd
000002a0: 8f2b 283e d166 aabc 4cac 52bc 58a7 373e
000002b0: ec8d a43d 29df 81bd 9faf 963d 2f8d 523d
000002c0: 7d96 cf3d f416 d13d 0949 883d e8d5 243e
000002d0: 145a 053d fca4 933d 6cc2 843d dd67 853d
000002e0: a394 143d 8e7a 643d b2af 8f3d 9c8d cf3c
000002f0: 0f73 bebd 56d3 ad3d c799 0c3d 1494 ba3d
00000300: b0e1 06bd 4d87 35bd ac69 003c 4b78 17bc
00000310: 5384 fe3d 8390 d7bb 9745 463d 3576 0e3e
00000320: 7b36 81bb dead ec3d 8a26 c93c a2ec 613d
00000330: 0663 33bd ff13 263d 83b5 9e3d 3b8f 3bbd
00000340: 41ce a7ba 626a 50bd 1034 7f3c efe0 82bd
00000350: bb7b 37bd 4939 c2ba 6f69 49bd 41e6 d63d
00000360: 8ed8 883c 410f ed3d 2070 763b ced7 243d
00000370: 43e3 b13d 7aa0 5e3d dae7 043d b7ac 443b
00000380: fe4e b53d 7499 663c 7aea 03bc d544 9f3d
00000390: 838f e53d a412 563d f36c bd3d 3029 35bd
000003a0: 3d2c 9fbd 3d70 c1bc ff6c 6fbd b48e e6bc
000003b0: 916e a73d f7df 953d 024b 713d da32 08bd
000003c0: 5692 43bc 80b7 953a 46e4 b73d 339c 27bd
000003d0: d50a b9ba e3be 733d 5e61 913b 59fd a13d
000003e0: 0442 a8bd 584b 78bc 02a8 99bd 6a2b 54bb
000003f0: 6e0d ad3d bfc9 26bd def6 19bd 6ec8 8bbd
0.01167544 -0.005301388 -0.054601822 -0.0560783 0.10055447 0.011192917 0.062926576 -0.05637057
-0.069615796 0.115149796 -0.050846834 0.043221183 -0.045142695 0.046797827 -0.042815585 0.0061913407
-0.025738046 -0.06345653 0.039954804 0.0066158324 0.06561184 -0.062389605 0.059378013 -0.030473975
-0.059965722 -0.017829202 -0.04799271 -0.03394364 -0.0021015082 -0.037047684 -0.09133682 -0.006258594
0.13285843 -0.056465648 0.10493892 0.14984584 0.037559085 0.05070561 0.06486175 0.08989389
-0.004918599 0.01009132 -0.06551911 0.0048452453 0.071528606 0.09284499 -0.007963396 0.07735967
0.065487064 0.008276154 -0.004989128 0.07503852 -0.060146794 0.00023527165 -0.015834529 0.042399384
0.04993391 0.06756931 0.14288312 -0.059152894 0.0067162253 0.13350429 0.109477274 0.034018677
0.0045177536 0.014919909 0.07227416 0.003435774 -0.06408293 -0.048264064 -0.01825009 -0.0024089396
0.01817235 0.06926541 0.062300265 -0.04940402 -0.056967303 -0.09777851 0.031347428 0.06864465
0.014355007 -0.037377954 0.060746107 0.045722876 0.07519648 0.07006502 -0.015531952 0.13927068
-0.016544098 0.10546076 0.0007519258 0.0025591322 -0.012312851 0.033125125 -0.039562076 -0.04843987
0.036293656 -0.04160169 0.061537284 0.123525344 0.019175911 0.07089321 0.0035752303 0.019673042
-0.04137304 -0.06333981 -0.004949198 -0.018589668 0.08237849 0.026628284 -0.033170916 0.11527466
0.060142376 0.06318515 -0.043056887 0.026216635 0.039254464 -0.07828892 -0.0057329293 -0.03750161
0.0050668158 0.08172007 0.062269837 -0.058134045 0.024062764 0.0726639 0.08426975 -0.019733358
-0.01660729 0.04049728 -0.050408382 -0.009435136 0.059553087 0.05484713 -0.04628386 0.08667633
-0.020245813 0.01871596 -0.093029246 -0.07852691 0.07836682 0.057446215 0.18167335 0.009299255
-0.021125877 0.020785773 0.035746563 0.058014143 0.012563428 0.04901669 -0.04069143 0.033638816
0.05642815 -0.010765075 0.035970762 0.05555791 0.041511726 -0.012411619 -0.0058065187 0.072572894
-0.05347178 -0.052316714 0.0166005 0.008875245 0.056939356 -0.023348749 -0.043857507 -0.08480695
0.16422866 -0.02080098 -0.012858462 0.1793493 0.08034882 -0.063413925 0.07357716 0.051404174
0.10136125 0.10209456 0.06654555 0.16097224 0.03255661 0.07209203 0.064823955 0.06513951
0.036274564 0.05578094 0.07015933 0.02533608 -0.092992894 0.08487575 0.03432634 0.09110275
-0.032930076 -0.044318486 0.007837694 -0.009244989 0.124275826 -0.0065785064 0.04840621 0.1391228
-0.003943262 0.115566 0.02455451 0.05515731 -0.043795608 0.040546414 0.07749464 -0.045790892
-0.0012802557 -0.050882705 0.0155763775 -0.06390559 -0.044795733 -0.0014818098 -0.049172815 0.10493136
0.016704824 0.11575175 0.0037603453 0.04024487 0.08685925 0.05435226 0.032447673 0.0030010173
0.08852957 0.014074672 -0.008051509 0.077768005 0.11209013 0.05226387 0.09249296 -0.044228733
-0.0777211 -0.02361309 -0.058453556 -0.028144218 0.08175386 0.073181085 0.058909424 -0.03325162
-0.011936745 0.0011422485 0.089790866 -0.040920448 -0.0014117608 0.059508216 0.004436656 0.0790965
-0.082157165 -0.015154682 -0.07502748 -0.003237451 0.08449827 -0.040719744 -0.037588947 -0.06825338

4.bias f4 [6]
00000000: 7563 8e3d 9ff5 353e 970c 89bd cb16 cebb
00000010: 99f2 dabd e1d2 4cbd
0.06952564 0.17769478 -0.066918544 -0.006289338 -0.10690803 -0.050005797
