classifier.pt (torch_old, 577073 bytes, 6 tensors)

0.weight f4 [200, 512]
0	0xbc43beb1	-0.01194732
1	0xbd322ec2	-0.043501623
2	0x3caa988a	0.02082469
3	0xbce3ddcb	-0.02781572
4	0xb8f72e52	-0.00011786506
5	0x3d149099	0.03627071
6	0xbd1c498b	-0.038156074
7	0x3c15f126	0.009151733
8	0xbcb3c497	-0.021944327
9	0x3c881e56	0.016616028
10	0x3d227d94	0.039670542
11	0x3c17d608	0.009267338
12	0xbb10ff54	-0.0022124844
13	0x39a1a8e8	0.00030834158
14	0xbc859fea	-0.016311605
15	0xbcce335b	-0.025170973
16	0xbb0dea83	-0.0021654672
17	0xbbe04ac4	-0.0068448503
18	0x3ce7479f	0.028232394
19	0xbcca3bd9	-0.02468674
20	0x3ccd78af	0.02508196
21	0xbd0c7a99	-0.034296606
22	0xbcb3f159	-0.02196567
23	0x3d186a23	0.037210595
24	0x3d149cf0	0.03628248
25	0xbc9e0950	-0.01929155
26	0x3cbf6163	0.023361867
27	0x3be4b0be	0.006979077
28	0x3d138999	0.036019895
29	0xbd162fd6	-0.036666714
30	0x3d328427	0.04358306
31	0xba019da5	-0.00049444503
32	0xbc3605e0	-0.011109799
33	0xbce7c27f	-0.028290985
34	0xbd483efe	-0.0488882
35	0x3c6477f1	0.013944612
36	0x3d34c574	0.04413362
37	0xbcc45340	-0.023965478
38	0x3d05beb2	0.032652564
39	0x3c05bbb0	0.008162424
40	0xbd4365f9	-0.04770467
41	0xbc3fa7ea	-0.011697749
42	0xbd3e433e	-0.046450846
43	0xbd366aed	-0.044535566
44	0xbca9f217	-0.02074532
45	0xbc1e4f13	-0.009662407
46	0xbcafc3f7	-0.021455748
47	0x3b4c52ad	0.0031177208
48	0x3cd1538c	0.025552534
49	0xbc25bc2f	-0.010115667
50	0xbc8563d7	-0.016282959
51	0x3caf3644	0.02138818
52	0xbd3cc147	-0.04608276
53	0x3c51e4f3	0.012810933
54	0xbd0b2b47	-0.03397682
55	0xbd1cd285	-0.038286705
56	0x3d134865	0.035957713
57	0xbc353ea6	-0.0110623
58	0x3b534245	0.0032235545
59	0xbcd71064	-0.026252933
60	0x3baa0710	0.00518883
61	0x3c056e0c	0.008143913
62	0x3d1ec2fc	0.03876017
63	0xbcc452ff	-0.023965357
64	0xbc5e1cae	-0.013556642
65	0xbd01a5f6	-0.031652413
66	0xbb127b86	-0.0022351458
67	0x3c3473c2	0.011013927
68	0xbccefe31	-0.025267692
69	0xbceabc1a	-0.028654147
70	0xbc64cfd1	-0.013965563
71	0x3c96e4e0	0.018419683
72	0x3c0d1342	0.008610548
73	0x3ca90ffb	0.020637503
74	0xbb033187	-0.0020018534
75	0xbcd84bed	-0.026403392
76	0xbd14873e	-0.03626179
77	0xbb7537b7	-0.0037417242
78	0x3cbe4d70	0.023230284
79	0x3c7795aa	0.015111366
80	0xbb6d4520	-0.0036204532
81	0xbd336a07	-0.043802287
82	0x3ce59114	0.02802328
83	0xbd16c9a1	-0.036813382
84	0xbcb8f304	-0.022576816
85	0xbd03539c	-0.032062158
86	0xbca1a39e	-0.019731339
87	0xbc17b4bb	-0.009259398
88	0x3cda4e44	0.026648648
89	0xbcea9fab	-0.028640589
90	0xbca38368	-0.01996012
91	0xbcaca569	-0.021074967
92	0x3ceac11b	0.028656533
93	0x3d298f3d	0.04139637
94	0xbc120a75	-0.008913626
95	0xbc6d3ea2	-0.014480265
96	0xbd31fe08	-0.043455154
97	0x3a7539d0	0.0009354623
98	0x3c818350	0.015809685
99	0xbcc22253	-0.023698008
100	0x3cd0ef8a	0.025504846
101	0x3b8f6f20	0.004377261
102	0xbd09636d	-0.033542085
103	0x3a841a8d	0.0010078714
104	0x3c885fed	0.016647303
105	0xbd6c14d4	-0.05763705
106	0xbcbe95e9	-0.023264842
107	0xbc804704	-0.015658863
108	0x3d2f55c7	0.042806413
109	0x3d03b2fa	0.032153107
110	0xbc53fdc4	-0.01293892
111	0x3c835a9d	0.016034419
112	0x3a93b174	0.0011268095
113	0x3cdfe16b	0.027329167
114	0x3d462949	0.048379216
115	0xbc479681	-0.012181879
116	0xbb13ac73	-0.0022533208
117	0x3b3f7492	0.0029213768
118	0xbcfee6af	-0.031115858
119	0xbc8e2b05	-0.017354498
120	0x3bccb9aa	0.006247719
121	0xbceacdcd	-0.028662587
122	0xbd29debc	-0.04147218
123	0xbcb861e1	-0.02250761
124	0xbcd93824	-0.026516028
125	0x3ce29391	0.027658256
126	0x3d35288c	0.04422812
127	0xbc300068	-0.010742284
128	0x3ca38c18	0.019964263
129	0xbc38a2db	-0.0112692965
130	0x3cf77fac	0.030212246
131	0xbce3fb8d	-0.02782991
132	0x3c571c55	0.0131293135
133	0x3ce14073	0.027496552
134	0x3bf9313a	0.007604745
135	0x3c850e70	0.016242236
136	0x3d35d7fc	0.044395432
137	0xbbd845f7	-0.0066001373
138	0xbd43d86a	-0.04781381
139	0x3a253d60	0.0006303396
140	0x3d3a6c97	0.045513716
141	0x3d02f672	0.03197331
142	0x3d33587c	0.043785557
143	0x3c02700b	0.007961283
144	0xbc33f60d	-0.010983956
145	0x3d075034	0.033035472
146	0xbcd327eb	-0.02577587
147	0x3c59a7db	0.013284649
148	0x3b271ac2	0.0025498127
149	0x3d4654f6	0.04842087
150	0x3c93ddc2	0.018050078
151	0xbd1393a8	-0.036029488
152	0xbc430837	-0.011903814
153	0x3caa125d	0.02076071
154	0xbc0fc8d4	-0.0087759085
155	0x3d0d4119	0.03448591
156	0xbb1ef210	-0.0024253167
157	0x3c00fba3	0.007872495
158	0x3cf61ff4	0.030044533
159	0x3cc429be	0.023945685
160	0xbceadd59	-0.02867
161	0xbcc92de2	-0.024558011
162	0x3cf3ec72	0.029775832
163	0x3c7be1bb	0.015373643
164	0xbd129cfc	-0.035794243
165	0xbc1fc9ac	-0.009752672
166	0x3c819ea1	0.01582271
167	0xbcbb1099	-0.022835063
168	0xbca2523b	-0.019814601
169	0xbd4dae85	-0.050215263
170	0x3ab09b3c	0.0013473998
171	0x3c6f208f	0.014595165
172	0xbd10fa1e	-0.03539478
173	0xbcdf46da	-0.027255464
174	0x3b80bff2	0.0039291317
175	0x3c1a5d07	0.0094215935
176	0xbd1500fa	-0.036377884
177	0x3d02abdf	0.03190219
178	0x3c3c10bd	0.0114786
179	0xbc7b4a5b	-0.015337552
180	0xbd3e1c70	-0.04641384
181	0xbaa9bc78	-0.0012949845
182	0x3d23cb03	0.03998853
183	0xbd334c9a	-0.043774225
184	0x3bfb9ace	0.0076783663
185	0x3cb741ca	0.022370238
186	0xbc81fa8f	-0.015866546
187	0xbc98b66e	-0.018641677
188	0xbc0abacd	-0.008467388
189	0x3caa53b1	0.02079186
190	0x3c9755f5	0.018473605
191	0xbccddee0	-0.02513069
192	0x3bc28d33	0.0059372424
193	0xbb0cc8a0	-0.0021481887
194	0x3c0a0bd3	0.008425671
195	0xbd1581bd	-0.03650068
196	0x3d1d8006	0.03845217
197	0x3c1e7121	0.009670527
198	0x3a07e14f	0.0005183415
199	0x3d383cde	0.044979922
200	0x3b97418e	0.004615969
201	0xbc95a2bc	-0.018266074
202	0xbcca3119	-0.024681615
203	0x3d4284c1	0.047489885
204	0xbc1a085b	-0.009401406
205	0xbd7bdfdb	-0.061492782
206	0x3c9d14f1	0.019175025
207	0xbad83e26	-0.0016498014
208	0xbceeeb96	-0.02916507
209	0x3d236177	0.03988787
210	0xbd296f80	-0.0413661
211	0x3ce891a5	0.028389761
212	0xbc71a952	-0.014749842
213	0x3c655793	0.01399793
214	0x3ccf3599	0.025294112
215	0xbcb21cab	-0.021742186
216	0x3ce284ca	0.02765121
217	0x3b6b821f	0.0035935713
218	0x3d198eb9	0.037489627
219	0xbc5d21c4	-0.01349682
220	0xbb928a70	-0.0044720694
221	0xbd2874b2	-0.041126914
222	0xbce4c12e	-0.027924147
223	0xb9f657eb	-0.0004698628
224	0x3d39f675	0.045401055
225	0xbb24ccc1	-0.0025146457
226	0x3d49ca8b	0.049265426
227	0x3cba23fa	0.022722233
228	0x3d06c388	0.032901317
229	0x3d39edd2	0.04539282
230	0xbd064b49	-0.03278664
231	0x3cc93f7c	0.024566405
232	0xbd07bc4e	-0.033138566
233	0x3c8ec342	0.01742709
234	0xbcccbb2a	-0.02499159
235	0xbd0f7981	-0.035027985
236	0x3cad52a0	0.021157563
237	0xbd02df36	-0.03195115
238	0xbcfd7d83	-0.030943638
239	0xbd1e8bcf	-0.03870755
240	0x3c060b41	0.008181394
241	0x3cc997d1	0.024608525
242	0xbd25eb9d	-0.0405079
243	0xbd18f3b0	-0.037341774
244	0xbcffcbc8	-0.0312251
245	0x3cb94b3c	0.022618882
246	0xbce82bde	-0.02834123
247	0xbcee4fe6	-0.029090833
248	0xbd39d8a2	-0.045372613
249	0x3c8e6313	0.017381227
250	0x3bdc40aa	0.0067215757
251	0xbba595f7	-0.0050532776
252	0xbc29c767	-0.010362483
253	0xbc924c47	-0.017858637
254	0x3b6699e4	0.003518694
255	0xba898874	-0.0010492937

0.bias f4 [200]
0	0x3d219013	0.03944404
1	0xbbd4b671	-0.0064914753
2	0x3d4b38c7	0.049614694
3	0x3c0704f7	0.00824093
4	0x3ce68611	0.0281401
5	0x3ce57dc5	0.028014073
6	0x3ce41822	0.027843539
7	0x3d577db3	0.05261011
8	0x3cf5d578	0.030009016
9	0x3c2b00ba	0.010437185
10	0xba0a3d46	-0.00052734127
11	0x3cea6532	0.028612707
12	0x3d0188e8	0.031624705
13	0x3d3d2668	0.046179205
14	0x3d1834f6	0.037159882
15	0xbc8d3a3a	-0.017239679
16	0x3d08799a	0.033319093
17	0xbd0a064a	-0.033697404
18	0x3c7889f0	0.015169606
19	0x39ea7e6b	0.00044726147
20	0xbcb29300	-0.02179861
21	0xbc7085ac	-0.014680307
22	0x3d17a47c	0.0370221
23	0x3d42e09c	0.047577485
24	0xbcd10592	-0.025515351
25	0xbb8a1203	-0.004213573
26	0x3c50f9aa	0.012754837
27	0x3cd64769	0.026157098
28	0x3d37ab2c	0.044840977
29	0x3d10c9da	0.03534875
30	0x3b97e009	0.0046348614
31	0x3d17518c	0.036943004
32	0x3c6161c8	0.013756223
33	0xbc4aa0a9	-0.012367406
34	0x3d131a47	0.035913732
35	0x3ca35a5f	0.019940553
36	0x3a81435e	0.0009861996
37	0x3cb6390f	0.022244005
38	0x3d6a86e5	0.05725755
39	0x3d13d871	0.036095086
40	0x3b69399d	0.0035587319
41	0xbc3c458b	-0.01149119
42	0x3d1f664b	0.038915914
43	0x3c55f2c0	0.013058364
44	0xb9a5c5c0	-0.00031618588
45	0x3cac64d1	0.021044167
46	0x3cc3f49b	0.023920348
47	0xbcd74241	-0.02627671
48	0x3d118121	0.035523538
49	0xbd1389e0	-0.03602016
50	0x3cf2ba29	0.029629784
51	0x3cb371b9	0.021904813
52	0x3bb4144c	0.0054955836
53	0xbc338d49	-0.010958978
54	0x3d5a20ec	0.053254053
55	0xbb813be8	-0.003943909
56	0xbc9f3b0c	-0.019437335
57	0xbbf8057c	-0.007569013
58	0x3db30f42	0.087431446
59	0x3c04e006	0.008110052
60	0x3cdb015f	0.026734052
61	0x3b5ef645	0.00340213
62	0xbc6b5178	-0.014362685
63	0xbd06a74f	-0.0328744
64	0x3cb32ea1	0.02187282
65	0x3c63eb65	0.013911103
66	0x3d20174b	0.039084714
67	0x3c8ca8e0	0.01717037
68	0x3d1df358	0.03856215
69	0x3d6398d2	0.055565663
70	0xbd019389	-0.03163484
71	0x3d65bf65	0.05609073
72	0x39d1e418	0.0004003353
73	0x3cd99a80	0.02656293
74	0x3d09d42b	0.033649605
75	0x3d42f08a	0.047592677
76	0x3d131f49	0.035918508
77	0x3c54f3f7	0.012997619
78	0xbcf32aba	-0.02968346
79	0x3c979e43	0.018508082
80	0xbba0da84	-0.0049088616
81	0x3ce6016d	0.028076852
82	0x3c93aa22	0.018025462
83	0x3cbc6d54	0.02300135
84	0x3d04399b	0.0322815
85	0x3bbb289b	0.0057116277
86	0x3a8f9505	0.0010954445
87	0x3c2cc95f	0.0105460575
88	0x3ccc8f3b	0.024970641
89	0x3ccbf262	0.02489585
90	0x3d5150fd	0.051102627
91	0x3cc4d46b	0.02402707
92	0x3d0b751c	0.03404723
93	0x3c4a6fb7	0.012355736
94	0x3c2ac508	0.0104229525
95	0x3da3b21c	0.07992956
96	0xbd1ce3b3	-0.03830309
97	0xbc52473f	-0.012834369
98	0xbc910817	-0.017704053
99	0x3c9193f4	0.017770745
100	0x3d670b63	0.056407344
101	0xbd048d8d	-0.032361556
102	0x3d3921e7	0.045198347
103	0x3ce898fa	0.028393257
104	0x3cb12e74	0.021628596
105	0x3bc13a7e	0.0058968654
106	0x3cba30a4	0.022728272
107	0x3d374c63	0.044750582
108	0x3d99197c	0.07475564
109	0x3cb22f89	0.021751182
110	0xbcf8c9bd	-0.030369634
111	0x3d41a045	0.047271986
112	0xbc3772e8	-0.011196829
113	0x3c54dec3	0.012992564
114	0x3d419f0a	0.047270812
115	0xbd2e2180	-0.042512417
116	0x3d6c3afc	0.05767344
117	0x3b1240e8	0.002231652
118	0x3d3b83d8	0.045780033
119	0x3c19834d	0.009369683
120	0x3b90dbaf	0.0044207196
121	0xbc34eb37	-0.011042408
122	0xbcfd6004	-0.030929573
123	0x3da89e90	0.082333684
124	0x3d80d478	0.06290525
125	0xbc4c2e61	-0.0124622295
126	0x3c5eae96	0.013591429
127	0x3c5a9133	0.013340282
128	0x3c31bd58	0.010848366
129	0x3d820d4a	0.06350191
130	0x3d0048bd	0.03131937
131	0x3d1b8f9d	0.037978757
132	0xbb936b7b	-0.0044988967
133	0x3ca0df6f	0.019637791
134	0x3cab453a	0.020907033
135	0x3d02ec88	0.031963855
136	0xbc5eb98a	-0.013594041
137	0xbc3ebc85	-0.011641626
138	0x3d5ad562	0.053426154
139	0x3d8ef970	0.0698117
140	0xbb9ef011	-0.0048503955
141	0x3a6e1cb7	0.00090832583
142	0x3d1c35e1	0.03813732
143	0xbb8234eb	-0.0039735935
144	0x3c31d358	0.010853611
145	0xba992aba	-0.0011685707
146	0x3c82eef2	0.015983079
147	0x3b5e570c	0.0033926396
148	0x3d4cd6a1	0.050009374
149	0xbd37933d	-0.04481815
150	0xbcae1b3c	-0.02125322
151	0x3b766962	0.0037599434
152	0x3cee349f	0.029077826
153	0x3d2ebb3d	0.042659033
154	0x3d0b5378	0.03401515
155	0x3c9958c1	0.018719079
156	0x3d3ebd90	0.0465675
157	0xbc2920eb	-0.01032279
158	0x3cc40306	0.023927223
159	0x3dc3aa3e	0.095539555
160	0x3d5493bb	0.0518987
161	0x3cc70bd8	0.02429764
162	0x3ca03f5e	0.019561466
163	0xbc9bd141	-0.019020678
164	0xbcbd0889	-0.023075359
165	0xbd195631	-0.037435714
166	0x3cc9f872	0.0246546
167	0xbbab532c	-0.0052284207
168	0x3d26e58d	0.04074626
169	0xbbe64000	-0.0070266724
170	0x3d39dee3	0.045378577
171	0x3ce322d6	0.027726572
172	0x3c80e5ed	0.015734637
173	0x3d71e355	0.05905469
174	0x3d192905	0.037392635
175	0x3d1fe852	0.039039917
176	0x3da18edb	0.07888576
177	0xbb47daff	-0.0030495522
178	0x3cae0afe	0.021245476
179	0xbd1b7eb0	-0.037962615
180	0xbca47446	-0.020074975
181	0x3ae65bd8	0.0017574979
182	0x3cf4b5de	0.029871877
183	0xbc980d60	-0.018561065
184	0x3c1b0e51	0.0094638625
185	0x3d22ee16	0.039777838
186	0xbbeeba9c	-0.007285429
187	0x3d7afa39	0.061273787
188	0x3d7b3413	0.06132896
189	0x3d13c618	0.03607759
190	0x3d6625cc	0.05618839
191	0x3d004239	0.031313155
192	0x3d147630	0.036245525
193	0x3abd2c33	0.0014432728
194	0xbc7c631a	-0.015404487
195	0xbc067a32	-0.008207845
196	0xbcc1165b	-0.02357023
197	0x3d57c924	0.052682057
198	0x3daa52ee	0.08316599
199	0x3d1d96e8	0.038473994

2.weight f4 [200, 200]
0	0xbd64db17	-0.055873003
1	0xbd480b9e	-0.048839204
2	0xbd12bac0	-0.03582263
3	0xbd2bdcc7	-0.041958597
4	0xbd089cb8	-0.033352584
5	0xbced41da	-0.028962065
6	0xbb8c514b	-0.004282152
7	0xbd06f151	-0.03294498
8	0x3cbc6fe6	0.023002576
9	0xbc38c547	-0.011277503
10	0x3cd0f806	0.025508892
11	0xbd1464a2	-0.036228783
12	0x3d025b4e	0.031825356
13	0xbd07425c	-0.03302227
14	0x3d2689fc	0.040658936
15	0xbccc3c34	-0.02493105
16	0x3b90bcb6	0.0044170273
17	0x3d86f611	0.06589902
18	0x3d465780	0.04842329
19	0x3d8b50e9	0.06802542
20	0xbca8bb59	-0.020597147
21	0x3d91c080	0.071167946
22	0x3d805b7d	0.0626745
23	0xbd0450b7	-0.03230354
24	0x3bc831a2	0.0061094323
25	0xbcb89c70	-0.022535533
26	0xbb2cf16c	-0.0026389016
27	0x3d3e4d11	0.046460215
28	0x3ce41fbd	0.027847165
29	0x3ca2da30	0.01987943
30	0x3bd2e4fa	0.0064359875
31	0x3cc9f344	0.02465213
32	0x3d130fa5	0.03590359
33	0xbd0f4696	-0.034979425
34	0xbc88666d	-0.016650403
35	0xbd42905a	-0.047500946
36	0xbcb065d1	-0.021532925
37	0x3bb0d09c	0.005395962
38	0xbcb293ef	-0.021799056
39	0xbaf8f5d1	-0.0018994157
40	0x3d5793eb	0.0526313
41	0x3b85e3e4	0.0040860046
42	0xbca3352d	-0.019922817
43	0x3b8c2a06	0.0042774705
44	0xbc42d289	-0.011891016
45	0x3d0bade6	0.03410139
46	0x3ceebd6a	0.029143054
47	0xbcca72b4	-0.024712898
48	0x3d5f1ce3	0.054470908
49	0x3d590948	0.052987367
50	0xbbad9645	-0.0052974545
51	0xbd92831d	-0.07153914
52	0xbcd05d8a	-0.025435228
53	0xbc9a9fc4	-0.01887501
54	0xbc0feb8a	-0.008784184
55	0x3d2405c4	0.04004456
56	0x3d6831dc	0.056688175
57	0xbd370f67	-0.044692423
58	0xb98d2657	-0.0002692218
59	0xbd54f6a6	-0.051993035
60	0x3c84ba04	0.01620198
61	0x3d2e2320	0.042513967
62	0xbd86ff45	-0.065916575
63	0x3c6fb726	0.014631068
64	0xbd043fde	-0.03228747
65	0xbd3df436	-0.046375476
66	0x3c4fce25	0.012683426
67	0xbd383729	-0.04497448
68	0x3d30eebe	0.043196432
69	0x3d628c74	0.055309728
70	0x3d47781a	0.048698522
71	0xbd17a5ec	-0.03702347
72	0x3d14b9d9	0.03631005
73	0x3d232b1c	0.039836034
74	0xbd391a80	-0.045191288
75	0x3c6c8469	0.014435866
76	0x3c34405a	0.011001671
77	0x3c9b1f77	0.018935902
78	0xbd02c819	-0.03192911
79	0x3cd6e80a	0.026233692
80	0xbcd77ed6	-0.026305597
81	0x3d2279d2	0.03966696
82	0x3dfd6b92	0.12374033
83	0x3c7d4b62	0.015459867
84	0xbd4471cf	-0.0479601
85	0xbbcd5f26	-0.006267446
86	0x3da38948	0.07985169
87	0xbc3113d3	-0.010807949
88	0xbcd034f8	-0.025415882
89	0xbd5d3815	-0.054008562
90	0xbc4c8efa	-0.01248526
91	0x3d2d62af	0.04233044
92	0x3da29db9	0.079402395
93	0x3cd1a464	0.025591083
94	0x3cf2d564	0.029642768
95	0xbd386733	-0.045020293
96	0xbcc3b028	-0.023887709
97	0x3d669a20	0.05629933
98	0xbd218223	-0.03943075
99	0xbd6d1310	-0.057879508
100	0xbc97ddb9	-0.018538343
101	0xbbb3c32e	-0.0054859137
102	0xbc58533a	-0.0132034365
103	0xbc73fc42	-0.014891686
104	0xbd81d96c	-0.06340298
105	0xbc4ff929	-0.012693682
106	0x3c803e6e	0.015654769
107	0xbd88c5b6	-0.06678335
108	0x3d83b330	0.06430662
109	0x3d432e77	0.047651734
110	0x3d454eca	0.048170842
111	0x3dc595e8	0.09647733
112	0x3d836ae5	0.06416873
113	0xbcca751e	-0.024714049
114	0x3d850726	0.06495504
115	0x3d8f2fb4	0.069915205
116	0xbd8e1e8c	-0.0693942
117	0xbd862290	-0.06549561
118	0xbd372505	-0.04471304
119	0xbbddd77c	-0.0067700725
120	0x3d17f5ce	0.037099652
121	0x3d7e79ff	0.062128063
122	0x3cb15dc0	0.021651149
123	0xbd5877de	-0.05284869
124	0x3d5dbccb	0.054135125
125	0x3c046bab	0.008082311
126	0x3d3ffc8f	0.046871718
127	0xbd4788be	-0.048714392
128	0xbd6596fa	-0.056052186
129	0xbd8ed496	-0.06974141
130	0x3db08936	0.08619921
131	0x3cdecae3	0.027196353
132	0x3d0e9cc8	0.034817487
133	0x3d0e54de	0.034748904
134	0xbcb94c4a	-0.022619385
135	0xbcdbe644	-0.026843198
136	0xbd483a7e	-0.048883907
137	0xbadad03d	-0.001669414
138	0x3d0afaeb	0.0339307
139	0x3db08950	0.0861994
140	0xbbc47b10	-0.0059961155
141	0x3d45e322	0.048312314
142	0x3d928c72	0.07155694
143	0x3c38d287	0.011280662
144	0x3d8a4c9c	0.06752893
145	0xbd86f7d8	-0.06590241
146	0xbd0970f7	-0.033554997
147	0x3da97f04	0.082761794
148	0xbc5bdc24	-0.013419185
149	0x3d3d57ed	0.04622643
150	0xbd6f4bba	-0.058421828
151	0xbcc3d1ef	-0.023903815
152	0x3caccb2c	0.021092974
153	0x3c69dfe1	0.014274568
154	0xbd3f8f4e	-0.046767525
155	0x3d8c8edf	0.06863188
156	0xbc93ab09	-0.018025892
157	0xbd287c89	-0.04113439
158	0xbc1bafee	-0.009502394
159	0x3d8806ff	0.066419594
160	0x3ca05d88	0.01957585
161	0x3d27af28	0.040938526
162	0x3d879308	0.06619841
163	0x3d1d0876	0.038338147
164	0x3d5ef05f	0.054428454
165	0x3d6a54ab	0.057209652
166	0x3cadb70b	0.021205446
167	0xbd4bdf36	-0.049773417
168	0xbd7a9608	-0.061178237
169	0xbc5c2837	-0.013437322
170	0x3cb2cd03	0.021826273
171	0x3d4ee533	0.05051155
172	0xbd820086	-0.06347756
173	0xbcede31d	-0.02903896
174	0xbd0534e7	-0.032521155
175	0xbc742448	-0.014901228
176	0x3d2a2f20	0.04154885
177	0x3d23d43b	0.03999732
178	0xbd364e9c	-0.04450856
179	0xbd6797ac	-0.05654113
180	0x3d61a999	0.05509338
181	0x3d16796e	0.036736898
182	0x3da998ec	0.08281121
183	0x3c907b2b	0.017636856
184	0xbcae3dca	-0.021269698
185	0xbd8c3c7b	-0.06847473
186	0x3da57eb5	0.08080808
187	0xbc72d048	-0.014820166
188	0xbbc0d9d9	-0.0058853445
189	0x3c1538b0	0.009107754
190	0xbbf976d4	-0.0076130424
191	0x3d4aa539	0.049473975
192	0xbbcd2889	-0.0062609357
193	0xbd8daa6b	-0.0691727
194	0x3aff4ef6	0.0019478488
195	0x3d205824	0.039146557
196	0x3c4dd230	0.01256232
197	0x3c8e2cbd	0.017355317
198	0xbd0dfb20	-0.03466332
199	0xbd884b46	-0.06654982
200	0xbc321696	-0.010869643
201	0x3d790218	0.060793012
202	0x3d48df1c	0.0490409
203	0x3d3d624b	0.046236318
204	0xbca2d547	-0.01987709
205	0x3d067018	0.032821745
206	0xbb941537	-0.0045191306
207	0x3d8dd7c0	0.06925917
208	0x3d6bf5ff	0.057607647
209	0xbc6977cb	-0.014249752
210	0x3d771075	0.06031843
211	0x3ccf4c8d	0.025305057
212	0xbd4a2f49	-0.0493615
213	0xbd809a70	-0.062794566
214	0xbcf8cee9	-0.0303721
215	0x3cb12bb5	0.021627286
216	0x3d725b35	0.059169013
217	0x3d1f1263	0.038835894
218	0xbd3d039d	-0.046146024
219	0xbd40ea9a	-0.047098733
220	0xbbdc407f	-0.0067215557
221	0x3d242254	0.0400718
222	0x3d88b999	0.06676025
223	0xbd36e7f0	-0.044654787
224	0x3d0017ee	0.03127282
225	0x3b336fca	0.0027379864
226	0x3b1088d4	0.0022054212
227	0x3b9349f5	0.0044949003
228	0xbca96c25	-0.02068145
229	0x3ca89b15	0.020581761
230	0xbd1d3c5b	-0.038387638
231	0x3d500994	0.050790384
232	0x3b1d36eb	0.0023989032
233	0x3ce47343	0.027886992
234	0x3d80e376	0.06293385
235	0x3cc6b76b	0.024257382
236	0xbd2650c5	-0.04060437
237	0x3c0a7897	0.008451602
238	0xbcf96384	-0.03044296
239	0xbcc2a9ff	-0.023762701
240	0xbbe8fa1f	-0.007109895
241	0xbd6d8ded	-0.05799668
242	0x3c86831a	0.016419936
243	0x3d74a121	0.059723977
244	0x3cf79f57	0.030227346
245	0xbc3ae3dd	-0.011406866
246	0x3d72aac8	0.0592449
247	0xbd08e0ec	-0.033417627
248	0xbd733b30	-0.059382617
249	0x3cacaf20	0.0210796
250	0xbd73c36c	-0.05951254
251	0xbc94f6ac	-0.018184029
252	0x3be3d4c7	0.0069528553
253	0x3be69ff4	0.007038111
254	0x3d95cb25	0.07314137
255	0xbd7d3302	-0.061816223

2.bias f4 [200]
0	0x3bb4f8b8	0.0055228136
1	0xbb862df3	-0.004094833
2	0xbd4847af	-0.048896488
3	0x3d2c8e7f	0.042128082
4	0xbd549c65	-0.051906962
5	0x3ca922d4	0.02064649
6	0xbcaf244d	-0.021379614
7	0xbcf34fe2	-0.029701177
8	0xbd5f0da7	-0.05445638
9	0xbd511f43	-0.051055204
10	0xbceaa4b7	-0.028642995
11	0x3d7e8177	0.062135186
12	0x3bdb0407	0.0066838297
13	0x3d16fea4	0.036863938
14	0x3ced74b9	0.028986322
15	0xbd4d224b	-0.050081532
16	0x3c77ea84	0.0151315965
17	0x3d99d843	0.07511952
18	0xbc60cfbb	-0.013721402
19	0xbd2a2b52	-0.04154522
20	0xbd17b170	-0.037034452
21	0xbd23a845	-0.039955396
22	0xbd2ee084	-0.042694584
23	0xbc349940	-0.011022866
24	0x3db4d5ec	0.08829865
25	0x3d4afdc4	0.049558416
26	0x3ce4fd5c	0.027952842
27	0xbce073a6	-0.027398895
28	0x3c4f91ec	0.012669068
29	0x3cddec88	0.027090326
30	0xbc179126	-0.009250915
31	0x3db4ec8a	0.08834179
32	0xbcb5e73d	-0.02220499
33	0x3c508c56	0.012728771
34	0x3caaaf47	0.020835532
35	0x3d9f399f	0.07774662
36	0xbbca830e	-0.0061801737
37	0x3dce99e3	0.10087945
38	0x3d822c8e	0.063561544
39	0xbd092d79	-0.03349063
40	0x3d17e8fd	0.03708743
41	0xbb80f1b8	-0.003935065
42	0x3d8d2f41	0.068937786
43	0xbcf2aa4c	-0.02962222
44	0x3d03c9d6	0.032174908
45	0x3cbede25	0.023299286
46	0x3d9c4790	0.07630837
47	0x3dc2695e	0.094927534
48	0xbc940680	-0.018069506
49	0xbcabf369	-0.02099009
50	0xbd8621a6	-0.06549387
51	0x3c32d868	0.010915853
52	0x3daba07d	0.0838022
53	0xbd7b9eca	-0.06143073
54	0xbcbf3720	-0.023341715
55	0xbcbcaa19	-0.023030328
56	0x3d04585e	0.032310836
57	0x3daa3515	0.08310906
58	0x3cd29452	0.02570549
59	0xbd4984cf	-0.04919892
60	0xbbce4e28	-0.006295938
61	0xbd5227a3	-0.05130733
62	0xbb3b626f	-0.0028592607
63	0xbc84cffb	-0.016212454
64	0xbd86ec6b	-0.06588062
65	0xba24fbf9	-0.00062936504
66	0x3d7a6766	0.061133765
67	0x3d8103cb	0.062995516
68	0xbd807c6e	-0.06273733
69	0x3ae42a8f	0.0017407703
70	0x3d86c0ca	0.0657974
71	0x3d0a0722	0.03369821
72	0x3d368083	0.044556152
73	0x3d2b8b0b	0.04188065
74	0x3ae1c511	0.0017224868
75	0xbd1ea877	-0.03873488
76	0xbd85ac65	-0.06527022
77	0x3dca7502	0.09885599
78	0xb9313106	-0.00016898298
79	0xbd24f1f7	-0.04026982
80	0x3d103b60	0.035212874
81	0x3d93fb7c	0.07225701
82	0x3c8fa891	0.017536433
83	0x3db7ae57	0.089687996
84	0xbd2e13b0	-0.042499244
85	0x3b259424	0.00252653
86	0xbd382fe3	-0.044967543
87	0xbc13633b	-0.008995826
88	0x3d76c25e	0.060243957
89	0x3c04ef5d	0.008113709
90	0x3c60f359	0.013729894
91	0x3daba2d9	0.0838067
92	0xbc73cf8a	-0.014881024
93	0x3d0f2311	0.03494555
94	0xbd5b16c9	-0.053488526
95	0xbb852a71	-0.0040638973
96	0xbd1357cd	-0.035972405
97	0xbc953634	-0.018214323
98	0x3dc0bf60	0.09411502
99	0x3de5d8df	0.112230055
100	0x3d96a646	0.07355933
101	0xbc010f82	-0.0078772325
102	0x3db93ec0	0.09045172
103	0x3cee925d	0.029122526
104	0x3d864a94	0.065571934
105	0xbcc60a2d	-0.024174774
106	0xbd71c4d6	-0.059025608
107	0x3d044d78	0.032300442
108	0xbc8c3fb0	-0.017120212
109	0x3c9b9f9c	0.018997006
110	0xbd4317e1	-0.047630195
111	0x3c02e33f	0.00798875
112	0x3d3637fc	0.044486985
113	0xbb3d289d	-0.0028863319
114	0x3d181794	0.03713186
115	0x3cf3be6a	0.029753882
116	0x3c2815a0	0.010259062
117	0x3b63d157	0.0034762227
118	0x3d1b27c7	0.03787973
119	0x3c6ccc47	0.014453
120	0xbd1d586b	-0.0384144
121	0xbd7a3131	-0.06108207
122	0xbd2f0318	-0.04272756
123	0xbd292cd0	-0.041302502
124	0xbd77f023	-0.060531747
125	0x3d4fbeef	0.050719198
126	0x3d496be4	0.04917516
127	0x3d6666b3	0.056250285
128	0x3d1dd993	0.038537573
129	0x3d3b37e1	0.045707587
130	0x3c530510	0.012879625
131	0x3c80efda	0.01573937
132	0xbcc29bd5	-0.023755947
133	0x3daf71ac	0.08566603
134	0xbd4f6af4	-0.050639108
135	0x3d86a693	0.0657474
136	0xbd41ca29	-0.047311936
137	0xbd67c499	-0.056583975
138	0x3d18cbfd	0.037303913
139	0x3d8e8823	0.0695956
140	0x3aadd0b3	0.001326105
141	0xbcc7e98b	-0.024403354
142	0x3db88461	0.09009624
143	0x3b62adba	0.0034588412
144	0x3daa1eef	0.08306681
145	0xbcbfb024	-0.02339942
146	0x3c2f2733	0.010690498
147	0x3d972be3	0.073814176
148	0x3d3abb01	0.045588497
149	0x3dd2bc30	0.102898
150	0x3d3cf385	0.046130676
151	0x3b3283f7	0.0027239302
152	0xbd7cffb5	-0.0617673
153	0xbcad7924	-0.021175928
154	0xbd2ea679	-0.04263923
155	0x3d4018aa	0.04689852
156	0xbacd9cea	-0.0015687023
157	0xbb335540	-0.0027364045
158	0x3d648233	0.05578823
159	0xbd12cd2f	-0.03584021
160	0x3c3817cc	0.011236142
161	0x3d5ca1eb	0.053865355
162	0xbd236720	-0.03989327
163	0x3ba47494	0.00501878
164	0xbc676245	-0.01412255
165	0x3d7f9a64	0.062403098
166	0x3c0b2057	0.008491597
167	0x3cae86c2	0.021304492
168	0x3daad12f	0.0834068
169	0x3d8356e7	0.0641306
170	0x3d94c693	0.072644375
171	0xbbd11a0d	-0.0063812793
172	0x3c31a726	0.010843074
173	0x3d3554c8	0.044270307
174	0x3d281ba3	0.04104198
175	0xbd1522ce	-0.036410145
176	0x3d86c9d8	0.065814674
177	0x3ccdb068	0.025108531
178	0x3ce0b8bb	0.027431836
179	0x3c8a73ed	0.01690098
180	0x3d50e5b7	0.051000323
181	0x3d7dff44	0.06201102
182	0xbccd83d5	-0.025087276
183	0xbd0bc405	-0.034122486
184	0x3d217b54	0.039424255
185	0x3cee0fe2	0.029060308
186	0x3db93c36	0.090446874
187	0x3da56abe	0.08077
188	0xbd31c933	-0.04340477
189	0xbc69a8d3	-0.014261442
190	0x3d74a328	0.05972591
191	0x3d2db299	0.042406652
192	0x3c29b19b	0.010357286
193	0x3d9728aa	0.07380803
194	0x3d417961	0.047234897
195	0xbccf0288	-0.025269762
196	0xbc019aad	-0.007910413
197	0x3d88e23f	0.06683778
198	0xbd551550	-0.05202228
199	0xbd2dfd3e	-0.04247784

4.weight f4 [6, 200]
0	0xbda23f3a	-0.07922216
1	0x3d8d80a5	0.069093026
2	0xbd0c5de8	-0.034269243
3	0xbe033a1f	-0.1281514
4	0xbd82b30b	-0.06381806
5	0xbcea00be	-0.028564807
6	0xbcdb64cc	-0.026781462
7	0xbdb99fd6	-0.090636894
8	0xbd742ab4	-0.059611037
9	0xbd22cb7e	-0.039744847
10	0xbcc54a07	-0.02408315
11	0x3e034618	0.12819707
12	0xbddf1ffa	-0.10894771
13	0x3aff8a42	0.001949616
14	0xbdf56802	-0.119827285
15	0x3b02725c	0.001990459
16	0xbd6c0112	-0.05761821
17	0xbd0630ed	-0.032761503
18	0xbd20a6b6	-0.039221488
19	0x3d87bbe8	0.06627637
20	0x3d73e6c8	0.059546262
21	0xbdde8191	-0.108645566
22	0x3dd9d304	0.10635951
23	0x3d3003d9	0.04297242
24	0x3dddc19d	0.108279444
25	0x3cba9725	0.02277715
26	0xbd7cbb88	-0.06170228
27	0xbc2f77e7	-0.010709739
28	0x3d9046de	0.07044767
29	0xbdf16666	-0.11787109
30	0xbdc31aa4	-0.09526566
31	0xbdf62889	-0.1201945
32	0xbde1b90c	-0.11021623
33	0xbd64d9c9	-0.05587176
34	0x3ba29cd2	0.004962542
35	0x3bc83d0e	0.006110794
36	0x3e090363	0.13380198
37	0xbe592d89	-0.21208777
38	0x3e944351	0.28957608
39	0x3c02e268	0.00798855
40	0xbd01e4f7	-0.0317125
41	0x3ea3e530	0.32010794
42	0xbdaed5df	-0.085368864
43	0x3dfae291	0.12250245
44	0xbd9543cd	-0.072883226
45	0x3d0c71c6	0.03428819
46	0xbcd5d8a2	-0.026104275
47	0x3d032f4a	0.03202752
48	0x3deb4a87	0.11488824
49	0x3d75c737	0.06000444
50	0x3d8bfb4b	0.0683504
51	0x3e04307d	0.12909122
52	0xbd04a95b	-0.032388072
53	0xbd654f49	-0.055983815
54	0x3de30ec9	0.110868044
55	0x3cfdc3a4	0.030977078
56	0xbd7d6595	-0.061864454
57	0xbdd12378	-0.10211843
58	0x3db96cd8	0.090539634
59	0xbda7428d	-0.081669904
60	0xbdd94e54	-0.10610643
61	0xbd2eb5f6	-0.042654
62	0xbca8c232	-0.020600412
63	0x3e6e41c5	0.23267277
64	0xbde35aef	-0.111013286
65	0xbd21757c	-0.039418682
66	0xbd1cd9b6	-0.038293563
67	0x3c4384d2	0.011933522
68	0xbdf82dc0	-0.12118101
69	0x3e45bde4	0.19310719
70	0xbd8c4ce3	-0.068506025
71	0x3cff6c6d	0.031179631
72	0x3d738109	0.05944923
73	0x3d7eb7f8	0.062187165
74	0xbdf16599	-0.11786956
75	0x3da1fbaa	0.07909329
76	0x3d486acb	0.04892997
77	0xbd01c4c6	-0.0316818
78	0x3da1060b	0.07862481
79	0x3d6503ff	0.055912014
80	0x3c2df470	0.0106173605
81	0x3ddb2452	0.10700287
82	0x3e4f6937	0.2025498
83	0xbe0d36b3	-0.13790397
84	0xbd7030c2	-0.05864025
85	0xbe3625c3	-0.17787842
86	0x3cd2f6f7	0.025752528
87	0x3d6e5c20	0.058193326
88	0x3d45555e	0.048177116
89	0x3e1a71fb	0.15082543
90	0xbc99333d	-0.01870119
91	0xbddea164	-0.108706266
92	0xbb430a3c	-0.0029760739
93	0x3dff08a1	0.12452818
94	0x3d0b59c1	0.034021143
95	0xbc6b6fd7	-0.014369926
96	0xbbef2164	-0.0072976816
97	0xbe0e4c15	-0.1389621
98	0x3e6ba64e	0.23012659
99	0xbdf84c9c	-0.12123987
100	0xbda08538	-0.078379095
101	0x3e58556b	0.21126334
102	0xbdb48525	-0.08814458
103	0xbd95d26a	-0.07315524
104	0xbd88e0b0	-0.06683481
105	0x3e87fc3f	0.26559636
106	0x3c07938d	0.008274925
107	0x3c2b504e	0.010456158
108	0xbdc44176	-0.09582798
109	0x3c0cd9ed	0.008596879
110	0xbc94dfa2	-0.018173043
111	0x3eb46791	0.35235265
112	0xbc1e27c7	-0.009653038
113	0x39eb234d	0.00044848994
114	0x3de2a5b7	0.11066764
115	0xbdb33d61	-0.087519415
116	0x3c3e60c8	0.011619754
117	0xbdb7fb52	-0.089834824
118	0xbdbab1c7	-0.091159396
119	0x3d286845	0.041115064
120	0x3df00dee	0.11721407
121	0xbd8856da	-0.066571906
122	0xbd8a0a5c	-0.06740257
123	0xbd426500	-0.047459602
124	0xbcfa765d	-0.030574018
125	0xbc568ba2	-0.0130948145
126	0xbc8c7e04	-0.017149933
127	0xbce73140	-0.028221726
128	0xbd1e4ae5	-0.038645644
129	0xbd14b0e7	-0.03630152
130	0x3d2bcdec	0.04194443
131	0xbdccc293	-0.099980496
132	0xbd674bfd	-0.056468952
133	0x3d89bc97	0.06725424
134	0xbd289d48	-0.04116562
135	0x3b9bb63f	0.00475195
136	0x3d6bf0b5	0.057602603
137	0x3ca1ac01	0.019735338
138	0xbd8e5cf3	-0.069513224
139	0xbcc0435b	-0.023469618
140	0x3c964fd9	0.018348621
141	0x3e2e1fba	0.1700429
142	0xbd2e3e60	-0.042539954
143	0x3e19210f	0.14954017
144	0xbd9eafe8	-0.07748395
145	0x3ca0736a	0.019586284
146	0x3e26af39	0.1627778
147	0x3dbf9ef6	0.09356491
148	0xbe52f954	-0.20602924
149	0xbdc1414c	-0.094362825
150	0xbc93a076	-0.01802085
151	0xbd83368c	-0.06406888
152	0xbbf58146	-0.0074922172
153	0xbe26dd71	-0.1629541
154	0xbc848e33	-0.016181087
155	0xbdc75397	-0.0973274
156	0xbd8fb2a7	-0.07016497
157	0x3c48ff9b	0.012267972
158	0xbc9ccf49	-0.01914181
159	0xbe0aa028	-0.13537657
160	0xbd57ee5f	-0.052717563
161	0x3ea9f3e8	0.33193898
162	0xbd8824e1	-0.06647659
163	0x3e68ba4d	0.22727318
164	0xbc962bc5	-0.018331418
165	0xbda5da45	-0.08098272
166	0xbd6dd42b	-0.058063667
167	0xbd47ec6f	-0.048809465
168	0xbe464b12	-0.19364575
169	0x3d3705c4	0.044683233
170	0xbd3de1b0	-0.04635781
171	0xbd916a4a	-0.07100351
172	0xbbf61e0c	-0.007510906
173	0xbdb67fe2	-0.089111105
174	0x3e2cf81c	0.16891521
175	0xbd4f217d	-0.050569046
176	0xbd98f6b6	-0.074689314
177	0xbd8b7fd4	-0.06811491
178	0xbd459c49	-0.04824475
179	0x3de4609d	0.1115124
180	0x3d75fd5b	0.06005607
181	0x3da07e8d	0.07836638
182	0xbd4fefad	-0.050765682
183	0x3d8c5ace	0.06853257
184	0x3e4c2084	0.19934279
185	0xbe6e2ef2	-0.23260096
186	0x3cc4c239	0.024018394
187	0xbdc29b00	-0.0950222
188	0x3d52acd9	0.05143437
189	0x3de5cf76	0.11221211
190	0xbe0e0861	-0.13870384
191	0xbe3dfdba	-0.1855382
192	0xbb3fb160	-0.002925001
193	0xbd5eaccc	-0.05436401
194	0x3cbfdbdf	0.023420272
195	0x3e008119	0.12549247
196	0xbcf5872d	-0.029971683
197	0xbdd652ac	-0.10464987
198	0xbb548fe4	-0.0032434398
199	0x3d09f11b	0.0336772
200	0xbdf5c860	-0.12001109
201	0x3d83486b	0.06410297
202	0x3e71b320	0.23603487
203	0x3deece11	0.11660398
204	0x3d902c35	0.07039682
205	0xbd2df3b6	-0.04246875
206	0xbd977a0d	-0.07396326
207	0x3e695d62	0.22789529
208	0x3ca3166a	0.019908149
209	0x3d370b45	0.04468848
210	0x3e09f94d	0.13474007
211	0xbe20309b	-0.15643542
212	0xbdd94708	-0.10609251
213	0xbc69dd22	-0.014273914
214	0x3e2ddbe8	0.16978419
215	0xbd8f5d07	-0.070001654
216	0xbcdcfc8a	-0.026975889
217	0x3d9c3aae	0.0762838
218	0xbd92ea9e	-0.07173656
219	0xbd15aaf0	-0.03653997
220	0x3c277bbc	0.010222372
221	0x3d60dfe3	0.054901015
222	0x3cc18a1f	0.023625432
223	0xbe52e350	-0.20594525
224	0x3d0e44f5	0.03473373
225	0xbe1a66bb	-0.15078251
226	0x3cb78000	0.022399902
227	0xbd8bde5b	-0.0682952
228	0xbde9b4df	-0.114114515
229	0x3d0a312a	0.033738293
230	0x3c7108e6	0.014711594
231	0x3e5ec90d	0.21756382
232	0xbddc8b01	-0.107687004
233	0x3e006a9b	0.12540667
234	0x38c2cfe2	9.289362e-05
235	0xbc7f3696	-0.015576979
236	0xbd2e31d2	-0.04252798
237	0x3c1254cb	0.008931349
238	0x3e8c0736	0.27349252
239	0x3e93a1df	0.28834435
240	0xbe0f7be2	-0.14012101
241	0xbda7d6c7	-0.081952624
242	0x3da0da04	0.07854083
243	0xbdfbc623	-0.12293651
244	0x3b3b25b7	0.0028556415
245	0xbd8cc1a7	-0.06872874
246	0x3e820bcc	0.25399625
247	0x3e00063b	0.12502377
248	0xbc547517	-0.0129673695
249	0xbdd91db4	-0.106013685
250	0xbd1ce2ef	-0.03830236
251	0x3d821a1e	0.06352638
252	0xbdcfa435	-0.10138742
253	0x3d4a9193	0.049455237
254	0xbdb90ca2	-0.09035613
255	0xbd938f09	-0.07205016

4.bias f4 [6]
0	0xbcb3d7b3	-0.02195344
1	0x3d5cbf5b	0.05389343
2	0x3ddf40b4	0.10901013
3	0xbd1b73ee	-0.037952356
4	0x3e166928	0.14688551
5	0xbe86b978	-0.26313376
